art_mcx/MCX_project/project/user/smartcar_used19.tflite (tflite, 302960 bytes, 42 tensors)

model_1/conv1/Conv2D i1 [8, 3, 3, 3]
000000 d7 06 e2 f0 f2 e9 f5 f3 13 01 2c 0d 1d 1a 15 ef
       -41 6 -30 -16 -14 -23 -11 -13 19 1 44 13 29 26 21 -17
000010 15 f1 7d 68 4c 7f 6e 53 0f 3f d6 f8 4a c0 c7 5b
       21 -15 125 104 76 127 110 83 15 63 -42 -8 74 -64 -57 91
000020 df cd 37 fc e8 6c ae 9e 7f e4 a8 46 0f e9 4a cd
       -33 -51 55 -4 -24 108 -82 -98 127 -28 -88 70 15 -23 74 -51
000030 c0 4a f6 cb 28 0b 2a 16 bf 56 0b 9f 46 f6 c4 50
       -64 74 -10 -53 40 11 42 22 -65 86 11 -97 70 -10 -60 80
000040 0d a4 7c 04 81 5b ed b6 32 f5 d8 44 f0 cb 32 e8
       13 -92 124 4 -127 91 -19 -74 50 -11 -40 68 -16 -53 50 -24
000050 e4 00 00 00 00 00 00 00 00 00 00 00 00 00 00 00
       -28 0 0 0 0 0 0 0 0 0 0 0 0 0 0 0
000060 00 00 00 00 00 00 00 00 00 00 00 00 e4 eb f3 55
       0 0 0 0 0 0 0 0 0 0 0 0 -28 -21 -13 85
000070 53 18 2a 7f 3e e6 e7 f6 75 29 fa 54 43 00 d7 ff
       83 24 42 127 62 -26 -25 -10 117 41 -6 84 67 0 -41 -1
000080 09 26 ff 05 d8 1f 15 17 3b 0b 1d 5a 22 f9 1d 0f
       9 38 -1 5 -40 31 21 23 59 11 29 90 34 -7 29 15
000090 5c 61 0c 43 7f 2a 03 24 1a 4b 1a f2 22 32 0f ff
       92 97 12 67 127 42 3 36 26 75 26 -14 34 50 15 -1
0000a0 07 0c b6 b3 b7 ab b6 81 ef ef 2e c5 a6 ca c7 b6
       7 12 -74 -77 -73 -85 -74 -127 -17 -17 46 -59 -90 -54 -57 -74
0000b0 8a fe da 0e e4 d1 3a dd e5 21 fb ee 2c 00 00 00
       -118 -2 -38 14 -28 -47 58 -35 -27 33 -5 -18 44 0 0 0
0000c0 00 00 00 00 00 00 00 00 00 00 00 00 00 00 00 00
       0 0 0 0 0 0 0 0 0 0 0 0 0 0 0 0
0000d0 00 00 00 00 00 00 00 00
       0 0 0 0 0 0 0 0

model_1/conv_dw_1_bn/FusedBatchNormV3;model_1/conv_dw_1/depthwise i1 [1, 3, 3, 8]
000000 f8 f8 0a 75 3e 06 f1 d4 81 12 7f 7e 2b 05 fd 93
       -8 -8 10 117 62 6 -15 -44 -127 18 127 126 43 5 -3 -109
000010 07 f6 c8 7f 09 fd fd cb 07 1b 01 72 81 04 11 81
       7 -10 -56 127 9 -3 -3 -53 7 27 1 114 -127 4 17 -127
000020 d5 7f 5e 4f f9 81 7f 88 0f e6 db 24 09 21 f8 9b
       -43 127 94 79 -7 -127 127 -120 15 -26 -37 36 9 33 -8 -101
000030 02 ed f3 4b f9 05 f7 a7 00 f6 de 13 00 11 05 db
       2 -19 -13 75 -7 5 -9 -89 0 -10 -34 19 0 17 5 -37
000040 f8 f4 19 12 07 f9 0a c0
       -8 -12 25 18 7 -7 10 -64

model_1/conv_pw_1/Conv2D i1 [16, 1, 1, 8]
000000 f5 e7 00 00 d3 81 ee 00 00 00 00 00 00 00 00 00
       -11 -25 0 0 -45 -127 -18 0 0 0 0 0 0 0 0 0
000010 0a fb 03 00 28 7f 11 00 00 00 00 00 00 00 00 00
       10 -5 3 0 40 127 17 0 0 0 0 0 0 0 0 0
000020 00 00 00 00 00 00 00 00 f2 d6 f7 00 ca 81 ec 00
       0 0 0 0 0 0 0 0 -14 -42 -9 0 -54 -127 -20 0
000030 ff 7f ff 00 00 02 00 00 00 11 81 00 02 ff 01 00
       -1 127 -1 0 0 2 0 0 0 17 -127 0 2 -1 1 0
000040 00 00 00 00 00 00 00 00 f8 ed 00 00 ed 81 eb 00
       0 0 0 0 0 0 0 0 -8 -19 0 0 -19 -127 -21 0
000050 00 00 00 00 00 00 00 00 00 00 00 00 00 00 00 00
       0 0 0 0 0 0 0 0 0 0 0 0 0 0 0 0
000060 ff 7f 10 00 00 00 ff 00 0b 0e 04 00 26 7f 11 00
       -1 127 16 0 0 0 -1 0 11 14 4 0 38 127 17 0
000070 00 00 00 00 00 00 00 00 00 00 00 00 00 00 00 00
       0 0 0 0 0 0 0 0 0 0 0 0 0 0 0 0

model_1/conv_dw_2_bn/FusedBatchNormV3;model_1/conv_dw_2/depthwise i1 [1, 3, 3, 16]
000000 4c ac 7f 9f a3 07 81 ee bc ea 7f 7d 06 d9 ab bc
       76 -84 127 -97 -93 7 -127 -18 -68 -22 127 125 6 -39 -85 -68
000010 b7 0a fe e0 9f 7f ec f8 99 7f 35 42 b9 0f c5 a2
       -73 10 -2 -32 -97 127 -20 -8 -103 127 53 66 -71 15 -59 -94
000020 f6 a2 0d a7 ad 08 f0 f9 f6 9e d2 af fd fa a9 81
       -10 -94 13 -89 -83 8 -16 -7 -10 -98 -46 -81 -3 -6 -87 -127
000030 7f fb d3 b2 e4 f0 d9 7f 81 ed 72 75 98 7f 81 12
       127 -5 -45 -78 -28 -16 -39 127 -127 -19 114 117 -104 127 -127 18
000040 9e a7 fa ea 81 83 f6 7b 0c 5a 02 1d 81 21 8c f0
       -98 -89 -6 -22 -127 -125 -10 123 12 90 2 29 -127 33 -116 -16
000050 ed 81 f8 43 a7 ef 09 0b 49 a9 cd ef e2 06 86 9a
       -19 -127 -8 67 -89 -17 9 11 73 -87 -51 -17 -30 6 -122 -102
000060 06 9b 0b 83 66 05 fc 01 a5 04 5c 7f da f6 da 2d
       6 -101 11 -125 102 5 -4 1 -91 4 92 127 -38 -10 -38 45
000070 f1 30 00 bf 26 02 fd 0b 8e 07 6a 6d fc f9 d9 97
       -15 48 0 -65 38 2 -3 11 -114 7 106 109 -4 -7 -39 -105
000080 08 9a fe 7f a0 09 00 f5 dd f7 52 08 d1 01 d8 a7
       8 -102 -2 127 -96 9 0 -11 -35 -9 82 8 -47 1 -40 -89

model_1/conv_pw_2/Conv2D i1 [32, 1, 1, 16]
000000 f4 00 7f 00 00 0a ec 02 00 09 00 00 06 26 00 00
       -12 0 127 0 0 10 -20 2 0 9 0 0 6 38 0 0
000010 81 00 0e 00 00 0c ff 00 00 08 00 00 00 f3 00 00
       -127 0 14 0 0 12 -1 0 0 8 0 0 0 -13 0 0
000020 ea 00 81 00 00 3c 00 00 00 03 00 00 06 73 00 00
       -22 0 -127 0 0 60 0 0 0 3 0 0 6 115 0 0
000030 df 00 a1 00 00 f8 02 00 00 03 00 00 05 7f 00 00
       -33 0 -95 0 0 -8 2 0 0 3 0 0 5 127 0 0
000040 d6 00 be 00 00 13 fd c5 00 f8 00 00 9d 81 00 00
       -42 0 -66 0 0 19 -3 -59 0 -8 0 0 -99 -127 0 0
000050 02 00 05 00 00 ff 72 35 00 00 00 00 81 08 00 00
       2 0 5 0 0 -1 114 53 0 0 0 0 -127 8 0 0
000060 00 00 02 00 00 00 13 7f 00 fe 00 00 f3 02 00 00
       0 0 2 0 0 0 19 127 0 -2 0 0 -13 2 0 0
000070 00 00 00 00 00 00 00 00 00 00 00 00 00 00 00 00
       0 0 0 0 0 0 0 0 0 0 0 0 0 0 0 0
000080 7e 00 a6 00 00 c9 d9 09 00 7f 00 00 3e c6 00 00
       126 0 -90 0 0 -55 -39 9 0 127 0 0 62 -58 0 0
000090 ff 00 fa 00 00 01 ee 7f 00 01 00 00 2b f9 00 00
       -1 0 -6 0 0 1 -18 127 0 1 0 0 43 -7 0 0
0000a0 00 00 00 00 00 00 00 00 00 00 00 00 00 00 00 00
       0 0 0 0 0 0 0 0 0 0 0 0 0 0 0 0
0000b0 01 00 fd 00 00 fe ba 7f 00 00 00 00 43 fe 00 00
       1 0 -3 0 0 -2 -70 127 0 0 0 0 67 -2 0 0
0000c0 0d 00 7f 00 00 f6 df fb 00 fe 00 00 fe 43 00 00
       13 0 127 0 0 -10 -33 -5 0 -2 0 0 -2 67 0 0
0000d0 4a 00 54 00 00 44 ea f9 00 fc 00 00 0c 7f 00 00
       74 0 84 0 0 68 -22 -7 0 -4 0 0 12 127 0 0
0000e0 d6 00 8f 00 00 ff 36 0d 00 f4 00 00 29 81 00 00
       -42 0 -113 0 0 -1 54 13 0 -12 0 0 41 -127 0 0
0000f0 7f 00 df 00 00 4c 17 f7 00 2a 00 00 00 b9 00 00
       127 0 -33 0 0 76 23 -9 0 42 0 0 0 -71 0 0

model_1/conv_dw_3_bn/FusedBatchNormV3;model_1/conv_dw_3/depthwise;model_1/conv_pw_247/Conv2D i1 [1, 3, 3, 32]
000000 fc f9 fc ed 0b f2 eb 46 d3 ea 04 fc 01 7f f0 d5
       -4 -7 -4 -19 11 -14 -21 70 -45 -22 4 -4 1 127 -16 -43
000010 07 da 00 08 ea f3 e7 02 f5 a0 f9 ee d4 91 f4 08
       7 -38 0 8 -22 -13 -25 2 -11 -96 -7 -18 -44 -111 -12 8
000020 07 f9 00 7f 1b f3 a0 16 0e 43 7f ed fe 87 2a 7f
       7 -7 0 127 27 -13 -96 22 14 67 127 -19 -2 -121 42 127
000030 7f 07 6b f9 dc 06 14 ff 81 c7 e5 23 bd 44 cf 00
       127 7 107 -7 -36 6 20 -1 -127 -57 -27 35 -67 68 -49 0
000040 00 0a ff d1 e2 01 4c 30 b8 0d 6a 16 08 fb f4 fc
       0 10 -1 -47 -30 1 76 48 -72 13 106 22 8 -5 -12 -4
000050 0a 1a 09 f8 11 f5 ff f4 05 0d 02 f5 40 0f 28 02
       10 26 9 -8 17 -11 -1 -12 5 13 2 -11 64 15 40 2
000060 f3 f1 f4 f3 ea d0 bf 27 a4 1e 23 9e 00 2f 19 2b
       -13 -15 -12 -13 -22 -48 -65 39 -92 30 35 -98 0 47 25 43
000070 f6 81 02 7f b2 09 88 f1 1c 7f 7f f5 cb 7f 05 38
       -10 -127 2 127 -78 9 -120 -15 28 127 127 -11 -53 127 5 56
000080 77 81 7f dc 7f 7f 81 3f 81 81 21 7f 8c ea 81 a1
       119 -127 127 -36 127 127 -127 63 -127 -127 33 127 -116 -22 -127 -95
000090 8b 1f 7f 0b 7f 7f 7f 7f 50 3c c3 7f 81 bd 81 7f
       -117 31 127 11 127 127 127 127 80 60 -61 127 -127 -67 -127 127
0000a0 81 16 f4 0b e9 df 23 fb ee ee cf e5 fd f5 1e fa
       -127 22 -12 11 -23 -33 35 -5 -18 -18 -49 -27 -3 -11 30 -6
0000b0 f0 68 fc fa 14 07 07 03 04 07 ee 84 12 f0 0d 18
       -16 104 -4 -6 20 7 7 3 4 7 -18 -124 18 -16 13 24
0000c0 01 01 00 00 fe 1a 50 17 ca f6 ba fd fc f0 04 fb
       1 1 0 0 -2 26 80 23 -54 -10 -70 -3 -4 -16 4 -5
0000d0 03 ed f5 00 ef e8 f4 03 f8 d8 ed f0 44 08 14 01
       3 -19 -11 0 -17 -24 -12 3 -8 -40 -19 -16 68 8 20 1
0000e0 ed fe fc e8 d0 be 11 7f c1 40 0c ff 7f 09 12 ff
       -19 -2 -4 -24 -48 -66 17 127 -63 64 12 -1 127 9 18 -1
0000f0 fb 0a 1b f9 35 f0 00 f6 16 f8 f9 16 21 f5 1f fc
       -5 10 27 -7 53 -16 0 -10 22 -8 -7 22 33 -11 31 -4

model_1/conv_pw_3/Conv2D i1 [32, 1, 1, 32]
000000 d4 01 f4 c0 18 f8 f4 00 05 03 00 01 11 03 a4 13
       -44 1 -12 -64 24 -8 -12 0 5 3 0 1 17 3 -92 19
000010 0a d4 88 e8 f7 e7 16 0b 81 19 9a 0c 03 74 1d cd
       10 -44 -120 -24 -9 -25 22 11 -127 25 -102 12 3 116 29 -51
000020 cb 5f b6 e9 0f f3 0a 00 4a 02 00 fb 40 d3 1e 1a
       -53 95 -74 -23 15 -13 10 0 74 2 0 -5 64 -45 30 26
000030 c3 f9 07 77 fa ec ce 95 5a fb 81 29 f4 25 08 df
       -61 -7 7 119 -6 -20 -50 -107 90 -5 -127 41 -12 37 8 -33
000040 02 06 ce c8 05 f2 03 00 44 0d 00 fd f2 f1 25 0f
       2 6 -50 -56 5 -14 3 0 68 13 0 -3 -14 -15 37 15
000050 f4 ff 7f fa 03 03 0c 07 5d 02 1e 02 0d 0f f9 0d
       -12 -1 127 -6 3 3 12 7 93 2 30 2 13 15 -7 13
000060 00 00 07 06 df 05 ad 00 14 fc 00 ef 01 05 d5 04
       0 0 7 6 -33 5 -83 0 20 -4 0 -17 1 5 -43 4
000070 00 06 05 ff 0a 07 03 ff 08 03 09 01 7f 06 ba 04
       0 6 5 -1 10 7 3 -1 8 3 9 1 127 6 -70 4
000080 cf c2 3a c7 07 08 f4 00 bb f6 00 01 15 14 31 18
       -49 -62 58 -57 7 8 -12 0 -69 -10 0 1 21 20 49 24
000090 e9 09 f3 ee fb f4 d6 ee 8c f2 7f 01 0b 1c 0e 6a
       -23 9 -13 -18 -5 -12 -42 -18 -116 -14 127 1 11 28 14 106
0000a0 17 f9 18 0a 81 e9 f4 00 fe 05 00 27 05 fe 64 fe
       23 -7 24 10 -127 -23 -12 0 -2 5 0 39 5 -2 100 -2
0000b0 04 e9 05 ff 04 0d 07 07 0f 0a fc f6 6f 11 b5 1d
       4 -23 5 -1 4 13 7 7 15 10 -4 -10 111 17 -75 29
0000c0 7c 3d d4 01 12 e2 f0 00 2a 10 00 fe c8 2c 7f df
       124 61 -44 1 18 -30 -16 0 42 16 0 -2 -56 44 127 -33
0000d0 02 f0 ef 30 fa 03 1b b9 2f 0e 00 ea fa c9 0c eb
       2 -16 -17 48 -6 3 27 -71 47 14 0 -22 -6 -55 12 -21
0000e0 2a ca 04 07 01 05 fa 00 2a 16 00 fe 25 19 33 4d
       42 -54 4 7 1 5 -6 0 42 22 0 -2 37 25 51 77
0000f0 c3 f3 30 c3 f8 ec d8 a3 7f 04 1b ed f4 17 ee 0e
       -61 -13 48 -61 -8 -20 -40 -93 127 4 27 -19 -12 23 -18 14

model_1/conv_dw_4_bn/FusedBatchNormV3;model_1/conv_dw_4/depthwise;model_1/conv_pw_247/Conv2D i1 [1, 3, 3, 32]
000000 3a 38 fa 28 3a e5 55 46 cd b6 c2 31 d6 d9 25 7c
       58 56 -6 40 58 -27 85 70 -51 -74 -62 49 -42 -39 37 124
000010 c4 4d d6 d2 cd 28 d3 da bb ca 2d bb 42 1b 47 35
       -60 77 -42 -46 -51 40 -45 -38 -69 -54 45 -69 66 27 71 53
000020 58 5e fc 4a a6 54 a1 5f ab 99 a9 56 bc 9f 4a 7f
       88 94 -4 74 -90 84 -95 95 -85 -103 -87 86 -68 -97 74 127
000030 b3 b5 c4 bd ae 5b b4 c8 a2 81 46 a2 a0 39 5e 5a
       -77 -75 -60 -67 -82 91 -76 -56 -94 -127 70 -94 -96 57 94 90
000040 26 34 fa 30 1c d3 14 30 dd d6 e5 31 e1 c7 29 1d
       38 52 -6 48 28 -45 20 48 -35 -42 -27 49 -31 -57 41 29
000050 e5 fe e7 ef db 3d da e9 dd b7 22 d7 1c 25 25 2d
       -27 -2 -25 -17 -37 61 -38 -23 -35 -73 34 -41 28 37 37 45
000060 62 55 d8 4c b4 d1 b9 52 b3 ab a4 4e a9 c6 46 7b
       98 85 -40 76 -76 -47 -71 82 -77 -85 -92 78 -87 -58 70 123
000070 9e 7f ab e1 ad 43 4a a2 a5 32 44 a8 a8 bc 5d 53
       -98 127 -85 -31 -83 67 74 -94 -91 50 68 -88 -88 -68 93 83
000080 7f 7f ba 7f 7f 7f 7f 7f 81 81 81 7f 81 81 7f 52
       127 127 -70 127 127 127 127 127 -127 -127 -127 127 -127 -127 127 82
000090 81 91 81 62 81 7f 7f 81 81 55 7f 81 7f 81 7f 7f
       -127 -111 -127 98 -127 127 127 -127 -127 85 127 -127 127 -127 127 127
0000a0 45 45 e1 54 d3 ae df 42 c5 cb d3 44 c9 b5 41 e2
       69 69 -31 84 -45 -82 -33 66 -59 -53 -45 68 -55 -75 65 -30
0000b0 d0 f8 c7 1f c4 53 30 cd c5 32 3f cc cf c1 2f 36
       -48 -8 -57 31 -60 83 48 -51 -59 50 63 -52 -49 -63 47 54
0000c0 2c 26 51 2c 12 e7 05 1b df ea e2 20 c9 e8 28 14
       44 38 81 44 18 -25 5 27 -33 -22 -30 32 -55 -24 40 20
0000d0 da 37 d3 7f d9 1f f7 c3 dd 01 1f e4 13 16 24 25
       -38 55 -45 127 -39 31 -9 -61 -35 1 31 -28 19 22 36 37
0000e0 4b 3e 7f 4b db 37 f4 38 cd de d1 42 b7 cd 44 de
       75 62 127 75 -37 55 -12 56 -51 -34 -47 66 -73 -51 68 -34
0000f0 c8 c6 bc 1e c4 36 e7 aa cd fc 40 d3 db 33 31 33
       -56 -58 -68 30 -60 54 -25 -86 -51 -4 64 -45 -37 51 49 51

model_1/conv_pw_4/Conv2D i1 [64, 1, 1, 32]
000000 01 cb 02 fa e2 fd e4 7f fe 1f ff f7 e4 f8 ff d9
       1 -53 2 -6 -30 -3 -28 127 -2 31 -1 -9 -28 -8 -1 -39
000010 00 fe 05 00 f9 48 05 4e c3 fa 10 06 de eb fd f9
       0 -2 5 0 -7 72 5 78 -61 -6 16 6 -34 -21 -3 -7
000020 01 f5 ff 00 0c f8 12 df 05 db fa 05 11 64 16 11
       1 -11 -1 0 12 -8 18 -33 5 -37 -6 5 17 100 22 17
000030 81 fd 81 00 f4 1d 05 42 07 fe fd 29 0e 00 a0 04
       -127 -3 -127 0 -12 29 5 66 7 -2 -3 41 14 0 -96 4
000040 08 01 16 05 05 02 00 03 08 fa fb 07 19 f8 02 12
       8 1 22 5 5 2 0 3 8 -6 -5 7 25 -8 2 18
000050 7f 04 c9 00 1f fa 1c f6 f4 23 04 08 02 27 06 ff
       127 4 -55 0 31 -6 28 -10 -12 35 4 8 2 39 6 -1
000060 fe 4c 08 07 fb f1 fe ca f8 f6 fb 06 0c 02 05 08
       -2 76 8 7 -5 -15 -2 -54 -8 -10 -5 6 12 2 5 8
000070 fb f5 fe 00 02 81 08 0c 4f f3 0b 14 00 ee 00 02
       -5 -11 -2 0 2 -127 8 12 79 -13 11 20 0 -18 0 2
000080 f5 f5 fe 81 fd f5 fe f8 fe 12 cd 6b 05 03 f6 fd
       -11 -11 -2 -127 -3 -11 -2 -8 -2 18 -51 107 5 3 -10 -3
000090 ff fc 00 00 03 0d fe fe 01 ff 01 f7 fc ff fc e8
       -1 -4 0 0 3 13 -2 -2 1 -1 1 -9 -4 -1 -4 -24
0000a0 0b fd f7 f3 02 29 ff fa fc 1a 01 fa fb 04 fd ee
       11 -3 -9 -13 2 41 -1 -6 -4 26 1 -6 -5 4 -3 -18
0000b0 f8 25 02 00 fb 09 f4 01 f4 fe 7f fb 02 01 fd d3
       -8 37 2 0 -5 9 -12 1 -12 -2 127 -5 2 1 -3 -45
0000c0 eb 08 00 a8 f9 fd ff 17 0b 23 81 f3 01 f4 d3 28
       -21 8 0 -88 -7 -3 -1 23 11 35 -127 -13 1 -12 -45 40
0000d0 14 05 11 00 07 e7 00 4c e3 e2 f0 f1 f7 dd fd 03
       20 5 17 0 7 -25 0 76 -29 -30 -16 -15 -9 -35 -3 3
0000e0 11 12 16 f3 09 e8 0a 1f e7 ee fb f7 fb 05 2b f5
       17 18 22 -13 9 -24 10 31 -25 -18 -5 -9 -5 5 43 -11
0000f0 96 eb 9d 00 de e8 25 f2 f9 22 fd 7f 0c 1a 12 dc
       -106 -21 -99 0 -34 -24 37 -14 -7 34 -3 127 12 26 18 -36

model_1/conv_dw_255_bn/FusedBatchNormV3;model_1/conv_dw_255/depthwise;model_1/conv_pw_248/Conv2D i1 [1, 3, 3, 64]
000000 81 67 5c 28 23 3c d3 ec 0d e7 e6 e4 ff 29 07 f7
       -127 103 92 40 35 60 -45 -20 13 -25 -26 -28 -1 41 7 -9
000010 3f d3 7f e9 b5 1a f2 f7 05 ee f2 50 1a 1a db 1b
       63 -45 127 -23 -75 26 -14 -9 5 -18 -14 80 26 26 -37 27
000020 10 c3 1e 33 28 28 fc af ca 35 0e e3 b7 81 04 20
       16 -61 30 51 40 40 -4 -81 -54 53 14 -29 -73 -127 4 32
000030 ea 03 18 16 d7 fb f5 81 26 b6 2c 4a 2d 25 0e 00
       -22 3 24 22 -41 -5 -11 -127 38 -74 44 74 45 37 14 0
000040 da 10 19 7f 7f 7f c8 25 cb f5 b8 f4 be e9 37 7f
       -38 16 25 127 127 127 -56 37 -53 -11 -72 -12 -66 -23 55 127
000050 e0 d2 01 81 cf c9 d4 2c b7 f1 73 43 dc 2b df d4
       -32 -46 1 -127 -49 -55 -44 44 -73 -15 115 67 -36 43 -33 -44
000060 e4 bb 44 7f 81 7f 1f 81 81 7f 0c ad bb cd d9 1f
       -28 -69 68 127 -127 127 31 -127 -127 127 12 -83 -69 -51 -39 31
000070 56 08 05 81 f3 2c 1a 61 9e 04 7f e7 7c 34 ad 7f
       86 8 5 -127 -13 44 26 97 -98 4 127 -25 124 52 -83 127
000080 f6 1b 7f ff eb 33 41 ec 06 81 94 6a f9 09 fd eb
       -10 27 127 -1 -21 51 65 -20 6 -127 -108 106 -7 9 -3 -21
000090 08 7f e7 fd 35 09 fb 0a c9 c4 7f c5 d6 0d f7 2b
       8 127 -25 -3 53 9 -5 10 -55 -60 127 -59 -42 13 -9 43
0000a0 16 27 bc 44 ea 1c f1 f9 02 66 0d df f4 01 fa 16
       22 39 -68 68 -22 28 -15 -7 2 102 13 -33 -12 1 -6 22
0000b0 19 24 10 12 f3 0a fc 0d c5 78 0e fb 7f 05 15 3f
       25 36 16 18 -13 10 -4 13 -59 120 14 -5 127 5 21 63
0000c0 86 31 20 f5 41 16 ef 8b f7 b1 81 ec 81 b3 5a 31
       -122 49 32 -11 65 22 -17 -117 -9 -79 -127 -20 -127 -77 90 49
0000d0 5d ca fe d5 0b e1 f9 ec bb 81 bc 60 b8 7f 53 fd
       93 -54 -2 -43 11 -31 -7 -20 -69 -127 -68 96 -72 127 83 -3
0000e0 7f 45 d5 7c d9 6e 7f 02 85 09 81 dc 50 2e e0 ce
       127 69 -43 124 -39 110 127 2 -123 9 -127 -36 80 46 -32 -50
0000f0 d0 29 4c a4 81 05 0c 14 34 fb f1 7f e3 4c ce 13
       -48 41 76 -92 -127 5 12 20 52 -5 -15 127 -29 76 -50 19

model_1/conv_pw_255/Conv2D i1 [64, 1, 1, 64]
000000 16 7f df 41 da 42 1a ad e1 f2 cd c7 fd e8 4f 33
       22 127 -33 65 -38 66 26 -83 -31 -14 -51 -57 -3 -24 79 51
000010 fc 43 1f e0 fe ec a5 2e e2 b4 1d e5 00 53 f8 4f
       -4 67 31 -32 -2 -20 -91 46 -30 -76 29 -27 0 83 -8 79
000020 4b f4 3e 32 11 36 41 e3 3e 07 df 28 ca 37 e4 2e
       75 -12 62 50 17 54 65 -29 62 7 -33 40 -54 55 -28 46
000030 0f ef dc 40 fe e9 20 1a 13 d3 50 00 f8 27 e3 67
       15 -17 -36 64 -2 -23 32 26 19 -45 80 0 -8 39 -29 103
000040 06 b6 0c be 30 e3 02 03 b0 04 2a d8 d8 2c df d4
       6 -74 12 -66 48 -29 2 3 -80 4 42 -40 -40 44 -33 -44
000050 f6 08 c9 f2 0f b7 35 a7 1a 2f 1c f1 07 df 14 c9
       -10 8 -55 -14 15 -73 53 -89 26 47 28 -15 7 -33 20 -55
000060 3d 0c c0 ef 42 d0 f0 32 fc a9 e5 cc 1f 36 1c 03
       61 12 -64 -17 66 -48 -16 50 -4 -87 -27 -52 31 54 28 3
000070 0f 2b 2b 2a a3 ea 2d d5 2b ef 99 fd 81 f7 09 14
       15 43 43 42 -93 -22 45 -43 43 -17 -103 -3 -127 -9 9 20
000080 1e fe e1 30 c7 25 db aa d8 d4 bc e0 2f d8 9d 53
       30 -2 -31 48 -57 37 -37 -86 -40 -44 -68 -32 47 -40 -99 83
000090 ff 0e ed 0f 2b 11 a5 0c d9 a6 d2 ef fe 43 18 41
       -1 14 -19 15 43 17 -91 12 -39 -90 -46 -17 -2 67 24 65
0000a0 14 ff 26 ad 24 df dd cd 19 fa ed 56 bd c1 39 f2
       20 -1 38 -83 36 -33 -35 -51 25 -6 -19 86 -67 -63 57 -14
0000b0 01 eb 18 ed 1d fc dd 55 fb d5 33 4c 20 34 81 25
       1 -21 24 -19 29 -4 -35 85 -5 -43 51 76 32 52 -127 37
0000c0 1f 65 11 d3 3d 03 e4 10 09 11 3c 12 06 30 7e e8
       31 101 17 -45 61 3 -28 16 9 17 60 18 6 48 126 -24
0000d0 e7 2d be 9e bf 9f 4b a7 26 fb 1d 36 2b e3 d2 f6
       -25 45 -66 -98 -65 -97 75 -89 38 -5 29 54 43 -29 -46 -10
0000e0 e2 de 14 e1 e9 a7 47 2e 52 d1 ca de 82 f3 22 0f
       -30 -34 20 -31 -23 -89 71 46 82 -47 -54 -34 -126 -13 34 15
0000f0 ef 1d 1f 34 e6 99 37 f4 3d 52 08 c7 81 0b e9 56
       -17 29 31 52 -26 -103 55 -12 61 82 8 -57 -127 11 -23 86

model_1/conv_dw_253_bn/FusedBatchNormV3;model_1/conv_dw_253/depthwise;model_1/conv_pw_248/Conv2D i1 [1, 3, 3, 64]
000000 37 6f d9 7f da 3e 26 f6 b6 3c 95 da fe 30 7f f7
       55 111 -39 127 -38 62 38 -10 -74 60 -107 -38 -2 48 127 -9
000010 20 e2 81 40 22 03 26 23 7f f8 7f f7 e7 f3 e5 c9
       32 -30 -127 64 34 3 38 35 127 -8 127 -9 -25 -13 -27 -55
000020 38 fc 07 81 d9 0d 00 ef 12 f6 7f 7f eb e4 fc a9
       56 -4 7 -127 -39 13 0 -17 18 -10 127 127 -21 -28 -4 -87
000030 46 7f f4 fd 4f 81 cb 32 7f 41 a0 48 f7 95 11 ac
       70 127 -12 -3 79 -127 -53 50 127 65 -96 72 -9 -107 17 -84
000040 d7 00 81 4f d7 3b df 2a 81 11 81 ec 81 28 fe 62
       -41 0 -127 79 -41 59 -33 42 -127 17 -127 -20 -127 40 -2 98
000050 45 ed da 54 fb 7f ce bd ea fc 44 0c 7f 1e fb d0
       69 -19 -38 84 -5 127 -50 -67 -22 -4 68 12 127 30 -5 -48
000060 7f f1 da a5 2e 1a d0 d5 f6 7f 66 05 b1 d2 32 c4
       127 -15 -38 -91 46 26 -48 -43 -10 127 102 5 -79 -46 50 -60
000070 7f 4d 17 ba 0d a3 ad 8c 57 42 34 12 df 95 d4 81
       127 77 23 -70 13 -93 -83 -116 87 66 52 18 -33 -107 -44 -127
000080 11 7f 07 16 39 4b dd d7 bb 7f b5 fa c0 81 17 39
       17 127 7 22 57 75 -35 -41 -69 127 -75 -6 -64 -127 23 57
000090 1b 7f d1 59 e0 33 81 8d 26 1b 3c 16 b8 07 fb db
       27 127 -47 89 -32 51 -127 -115 38 27 60 22 -72 7 -5 -37
0000a0 5c 4c 7f 8f 2d 60 fe 3b ee 8a 48 fc b5 ef 66 81
       92 76 127 -113 45 96 -2 59 -18 -118 72 -4 -75 -17 102 -127
0000b0 52 fd 53 fd 1d ba b3 a0 3a 7f 40 90 60 d0 b6 a1
       82 -3 83 -3 29 -70 -77 -96 58 127 64 -112 96 -48 -74 -95
0000c0 2e 0a ac 14 74 98 c9 ba 4e 28 0b 07 30 3b 7a cd
       46 10 -84 20 116 -104 -55 -70 78 40 11 7 48 59 122 -51
0000d0 09 d3 ef 7f 12 cc d3 db 24 ea 5f 18 06 41 43 03
       9 -45 -17 127 18 -52 -45 -37 36 -22 95 24 6 65 67 3
0000e0 e7 81 1f b7 e7 58 ba 11 3d f7 4c f4 ac 81 ff dd
       -25 -127 31 -73 -25 88 -70 17 61 -9 76 -12 -84 -127 -1 -35
0000f0 bb 37 81 c0 ea c3 81 6e d8 f5 4d 7f bf bf 39 05
       -69 55 -127 -64 -22 -61 -127 110 -40 -11 77 127 -65 -65 57 5

model_1/conv_pw_253/Conv2D i1 [64, 1, 1, 64]
000000 0d 1c f3 0c f8 f9 08 01 ac 11 b9 e3 dc 11 24 de
       13 28 -13 12 -8 -7 8 1 -84 17 -71 -29 -36 17 36 -34
000010 27 b4 b1 3a 0c 18 21 ec eb b7 3e c7 36 f3 e4 be
       39 -76 -79 58 12 24 33 -20 -21 -73 62 -57 54 -13 -28 -66
000020 2c f5 3a 93 16 16 0c c6 cb 48 3f a5 9a 30 33 51
       44 -11 58 -109 22 22 12 -58 -53 72 63 -91 -102 48 51 81
000030 7f 35 07 cc d2 f4 f8 ef 21 cd 0e 2d 28 cd f7 9f
       127 53 7 -52 -46 -12 -8 -17 33 -51 14 45 40 -51 -9 -97
000040 de 3a 14 0a 38 ce da 00 cb 7f f4 e5 f6 0a 35 4a
       -34 58 20 10 56 -50 -38 0 -53 127 -12 -27 -10 10 53 74
000050 de ba 3a d7 ec e5 17 1a c7 f1 df e8 ce fc f3 38
       -34 -70 58 -41 -20 -27 23 26 -57 -15 -33 -24 -50 -4 -13 56
000060 e2 1b b1 26 f9 bd 5e 40 fd bb da 1a 5d f6 11 3a
       -30 27 -79 38 -7 -67 94 64 -3 -69 -38 26 93 -10 17 58
000070 bc f3 2c f1 d3 11 fa 52 27 47 ff e4 38 e8 4e ca
       -68 -13 44 -15 -45 17 -6 82 39 71 -1 -28 56 -24 78 -54
000080 ef 13 38 0e e4 0f d0 24 fc b3 ef ce f6 53 df c8
       -17 19 56 14 -28 15 -48 36 -4 -77 -17 -50 -10 83 -33 -56
000090 21 7f a6 f3 f9 c4 ed 6a f6 c9 9e b2 ee de ab f2
       33 127 -90 -13 -7 -60 -19 106 -10 -55 -98 -78 -18 -34 -85 -14
0000a0 1a b0 38 dd e6 d3 3f 35 fe 33 df 01 d8 d3 a9 ea
       26 -80 56 -35 -26 -45 63 53 -2 51 -33 1 -40 -45 -87 -22
0000b0 10 24 e8 e3 39 0e 0a 39 26 27 cc dd 35 20 1c de
       16 36 -24 -29 57 14 10 57 38 39 -52 -35 53 32 28 -34
0000c0 10 e3 76 ad fc cf 27 94 a3 b1 09 32 3a 56 13 c8
       16 -29 118 -83 -4 -49 39 -108 -93 -79 9 50 58 86 19 -56
0000d0 bb 45 0e ae 18 22 e4 d6 0d 13 81 8e 02 ec d3 df
       -69 69 14 -82 24 34 -28 -42 13 19 -127 -114 2 -20 -45 -33
0000e0 e3 43 a6 74 f5 54 14 b7 0e d3 e6 f8 7b 0e f0 02
       -29 67 -90 116 -11 84 20 -73 14 -45 -26 -8 123 14 -16 2
0000f0 02 fe bc a4 45 54 eb c6 4c 3d 21 de d4 cb 15 fc
       2 -2 -68 -92 69 84 -21 -58 76 61 33 -34 -44 -53 21 -4

model_1/conv2d_7/Conv2D i1 [32, 1, 1, 64]
000000 04 95 eb e8 0b 0d f9 34 f3 df cb f8 d9 ae 21 2e
       4 -107 -21 -24 11 13 -7 52 -13 -33 -53 -8 -39 -82 33 46
000010 df 28 ed 19 f8 c7 81 cd eb a8 e8 2b a2 c8 2f 33
       -33 40 -19 25 -8 -57 -127 -51 -21 -88 -24 43 -94 -56 47 51
000020 00 cb c5 98 38 16 f8 ef 2e 12 e0 9d 97 29 b7 48
       0 -53 -59 -104 56 22 -8 -17 46 18 -32 -99 -105 41 -73 72
000030 c3 34 bb af e0 ec c2 f0 f3 a5 2d e1 54 10 15 c7
       -61 52 -69 -81 -32 -20 -62 -16 -13 -91 45 -31 84 16 21 -57
000040 f8 1b e5 f2 00 f9 58 00 81 23 ef 01 07 1c cf e9
       -8 27 -27 -14 0 -7 88 0 -127 35 -17 1 7 28 -49 -23
000050 48 cb 12 34 1e bd 10 9f f0 e9 1e e8 05 56 ef f1
       72 -53 18 52 30 -67 16 -97 -16 -23 30 -24 5 86 -17 -15
000060 35 12 f5 99 fa eb 05 0d d4 17 f4 f6 20 f3 12 00
       53 18 -11 -103 -6 -21 5 13 -44 23 -12 -10 32 -13 18 0
000070 e8 0b cb f9 24 34 27 3b 20 0b db 25 07 11 c4 3f
       -24 11 -53 -7 36 52 39 59 32 11 -37 37 7 17 -60 63
000080 bf 02 29 2d a3 e6 d1 06 f3 31 0a d4 b8 ef d7 a7
       -65 2 41 45 -93 -26 -47 6 -13 49 10 -44 -72 -17 -41 -89
000090 e0 2a d3 cb db 2e c4 20 d8 c9 08 29 d7 f0 3d 81
       -32 42 -45 -53 -37 46 -60 32 -40 -55 8 41 -41 -16 61 -127
0000a0 db a8 c8 41 9b c3 00 c1 8f f0 9e f9 fd e9 99 0c
       -37 -88 -56 65 -101 -61 0 -63 -113 -16 -98 -7 -3 -23 -103 12
0000b0 ef f7 16 c2 cc 19 04 a2 12 d1 ec 27 e6 68 e2 32
       -17 -9 22 -62 -52 25 4 -94 18 -47 -20 39 -26 104 -30 50
0000c0 0c 0b 09 fb f9 e5 1f f5 fb 61 e2 32 29 e5 c0 a4
       12 11 9 -5 -7 -27 31 -11 -5 97 -30 50 41 -27 -64 -92
0000d0 bc cb bf f7 cb c5 da 0c e8 29 00 e5 31 db ed eb
       -68 -53 -65 -9 -53 -59 -38 12 -24 41 0 -27 49 -37 -19 -21
0000e0 07 25 f2 fe b2 c1 f9 09 b9 06 fd 22 81 ef 1a eb
       7 37 -14 -2 -78 -63 -7 9 -71 6 -3 34 -127 -17 26 -21
0000f0 48 d3 10 f0 b8 a0 38 fe 33 fb 0c 26 e0 0e e5 21
       72 -45 16 -16 -72 -96 56 -2 51 -5 12 38 -32 14 -27 33

model_1/conv_dw_252_bn/FusedBatchNormV3;model_1/conv_dw_252/depthwise;model_1/conv_pw_248/Conv2D i1 [1, 3, 3, 64]
000000 8b 1b 3d f6 ee 0a dd b0 f4 5e 2d f3 02 4d 1e ce
       -117 27 61 -10 -18 10 -35 -80 -12 94 45 -13 2 77 30 -50
000010 ff 6d 7f 9c 81 e2 30 8f 7f 0e e1 d9 ec d4 5b 1a
       -1 109 127 -100 -127 -30 48 -113 127 14 -31 -39 -20 -44 91 26
000020 0f 7f 52 7f d8 ae a3 af f7 7f f1 cc 37 2c 81 33
       15 127 82 127 -40 -82 -93 -81 -9 127 -15 -52 55 44 -127 51
000030 bb 35 81 5a 26 81 81 a2 59 df 1b 13 a7 0e 4c 90
       -69 53 -127 90 38 -127 -127 -94 89 -33 27 19 -89 14 76 -112
000040 89 f8 e9 02 ec 34 b4 fb 7f 16 25 29 c2 ad c6 ac
       -119 -8 -23 2 -20 52 -76 -5 127 22 37 41 -62 -83 -58 -84
000050 e3 f6 3b c8 c7 26 7f 81 29 e6 81 da 7f 6b f6 af
       -29 -10 59 -56 -57 38 127 -127 41 -26 -127 -38 127 107 -10 -81
000060 4e fc 4d 2e 94 81 15 bf e3 36 db ad de fc 01 7f
       78 -4 77 46 -108 -127 21 -65 -29 54 -37 -83 -34 -4 1 127
000070 81 1b 06 98 c8 88 f9 e5 fb f2 5a 7d fc 47 cc 11
       -127 27 6 -104 -56 -120 -7 -27 -5 -14 90 125 -4 71 -52 17
000080 81 19 b3 0f 0d 7f d7 30 ec fa 90 f6 29 e6 81 dc
       -127 25 -77 15 13 127 -41 48 -20 -6 -112 -10 41 -26 -127 -36
000090 0b b5 ba d5 31 16 ff b4 3a fb e3 ff 6f 05 1b ec
       11 -75 -70 -43 49 22 -1 -76 58 -5 -29 -1 111 5 27 -20
0000a0 24 a7 37 e6 12 b6 81 ce 3c e8 0c 07 5c 7f a0 1a
       36 -89 55 -26 18 -74 -127 -50 60 -24 12 7 92 127 -96 26
0000b0 93 4c b6 96 60 d0 aa da c4 86 e7 ed d3 55 07 81
       -109 76 -74 -106 96 -48 -86 -38 -60 -122 -25 -19 -45 85 7 -127
0000c0 4f 09 5c 23 0b 05 0f da fe fc 0f fc c4 81 f0 a8
       79 9 92 35 11 5 15 -38 -2 -4 15 -4 -60 -127 -16 -88
0000d0 02 44 3b 87 c6 00 67 9b 3c f6 c4 0b 25 bf ad d0
       2 68 59 -121 -58 0 103 -101 60 -10 -60 11 37 -65 -83 -48
0000e0 d7 5a 4c 28 81 eb 1a c4 14 14 e4 10 7e 25 ac f9
       -41 90 76 40 -127 -21 26 -60 20 20 -28 16 126 37 -84 -7
0000f0 0f 25 9b 7f 6b c5 c6 81 78 ee 1d a5 a3 b4 72 8a
       15 37 -101 127 107 -59 -58 -127 120 -18 29 -91 -93 -76 114 -118

model_1/conv_pw_252/Conv2D i1 [64, 1, 1, 64]
000000 81 cd ed f4 0c 08 d9 1d ff a0 18 d6 f3 ff d5 11
       -127 -51 -19 -12 12 8 -39 29 -1 -96 24 -42 -13 -1 -43 17
000010 11 33 28 c6 09 c9 1e e8 c4 a8 d5 c3 15 c7 07 dc
       17 51 40 -58 9 -55 30 -24 -60 -88 -43 -61 21 -57 7 -36
000020 0e 15 dd 01 b0 f5 02 0a 00 46 f0 2b e0 cc c5 08
       14 21 -35 1 -80 -11 2 10 0 70 -16 43 -32 -52 -59 8
000030 b9 e3 f3 0c ef 34 f8 ad f5 f6 00 32 01 f3 cf e0
       -71 -29 -13 12 -17 52 -8 -83 -11 -10 0 50 1 -13 -49 -32
000040 2d 7c f3 34 c3 f6 d8 fe 07 4f 42 fb 2f e9 bb 00
       45 124 -13 52 -61 -10 -40 -2 7 79 66 -5 47 -23 -69 0
000050 b7 1a 37 63 f2 e4 f8 0a 35 d2 05 36 0c c9 b9 1c
       -73 26 55 99 -14 -28 -8 10 53 -46 5 54 12 -55 -71 28
000060 f7 3d fe ef 14 41 7f f7 cc 97 c8 23 4b fb 02 0e
       -9 61 -2 -17 20 65 127 -9 -52 -105 -56 35 75 -5 2 14
000070 d3 13 14 f5 bb fc 0b 00 b7 d3 eb ee e6 0b f4 39
       -45 19 20 -11 -69 -4 11 0 -73 -45 -21 -18 -26 11 -12 57
000080 05 0e d8 65 09 81 53 20 c8 ce 07 1e c5 f9 f1 e7
       5 14 -40 101 9 -127 83 32 -56 -50 7 30 -59 -7 -15 -25
000090 f2 fe d5 ff e0 c8 b7 e5 1d f3 1e 22 c5 08 c0 d2
       -14 -2 -43 -1 -32 -56 -73 -27 29 -13 30 34 -59 8 -64 -46
0000a0 3d 01 2b fe e0 ef 5e 1b bd 0a 0d 0a dd f4 28 16
       61 1 43 -2 -32 -17 94 27 -67 10 13 10 -35 -12 40 22
0000b0 0a f9 3d f8 f3 01 4b 0f 22 36 ed 1b f2 49 26 04
       10 -7 61 -8 -13 1 75 15 34 54 -19 27 -14 73 38 4
0000c0 23 1c 05 b6 f5 15 55 0e 81 0c ba 1b 0f c6 02 0b
       35 28 5 -74 -11 21 85 14 -127 12 -70 27 15 -58 2 11
0000d0 0e 0c 94 0f 1a 09 01 58 dd e2 28 b0 1e e7 e7 1e
       14 12 -108 15 26 9 1 88 -35 -30 40 -80 30 -25 -25 30
0000e0 d8 0c 44 f3 12 18 0b da b9 f5 28 ca 04 f4 d6 aa
       -40 12 68 -13 18 24 11 -38 -71 -11 40 -54 4 -12 -42 -86
0000f0 26 e1 54 ea 0f 27 b6 1f 41 c1 c6 fc fe 2c da f5
       38 -31 84 -22 15 39 -74 31 65 -63 -58 -4 -2 44 -38 -11

model_1/conv2d/Conv2D i1 [64, 1, 1, 64]
000000 c5 09 fb 04 d7 e7 d7 0e b4 0b f1 de c0 12 e8 81
       -59 9 -5 4 -41 -25 -41 14 -76 11 -15 -34 -64 18 -24 -127
000010 e0 da a4 e7 a7 1b f4 25 1e 31 d2 ff f3 35 3e 89
       -32 -38 -92 -25 -89 27 -12 37 30 49 -46 -1 -13 53 62 -119
000020 2b eb 12 ce a5 d9 db d8 e3 b7 09 b2 ac 0b 0a ac
       43 -21 18 -50 -91 -39 -37 -40 -29 -73 9 -78 -84 11 10 -84
000030 c7 f0 0e e2 9f 17 e6 fb 03 10 ef 08 14 ba fd 01
       -57 -16 14 -30 -97 23 -26 -5 3 16 -17 8 20 -70 -3 1
000040 f2 d3 12 4b 06 29 fd a8 ba f4 b7 92 b8 51 fe e4
       -14 -45 18 75 6 41 -3 -88 -70 -12 -73 -110 -72 81 -2 -28
000050 32 07 16 08 d2 ed 15 b7 04 e7 c7 34 f1 07 3a 13
       50 7 22 8 -46 -19 21 -73 4 -25 -57 52 -15 7 58 19
000060 2a 70 2b fc 35 c9 5d c8 98 db 3e 02 2e dc e0 e9
       42 112 43 -4 53 -55 93 -56 -104 -37 62 2 46 -36 -32 -23
000070 fc 81 d9 40 e1 20 c7 c9 fa 2b 3b ff ff 1b f3 a3
       -4 -127 -39 64 -31 32 -57 -55 -6 43 59 -1 -1 27 -13 -93
000080 22 f4 18 e5 c0 f5 12 2a d1 1e 64 03 1f 0b 45 7f
       34 -12 24 -27 -64 -11 18 42 -47 30 100 3 31 11 69 127
000090 08 25 24 b1 1d f9 e9 b5 3d ea ed 33 0d ac 19 27
       8 37 36 -79 29 -7 -23 -75 61 -22 -19 51 13 -84 25 39
0000a0 31 0a e9 38 f4 d5 d7 38 cf 01 dc b7 02 ea bf 17
       49 10 -23 56 -12 -43 -41 56 -49 1 -36 -73 2 -22 -65 23
0000b0 8f f2 d4 ee 5f 13 d3 4f bd 35 29 1a 1c e3 ea fa
       -113 -14 -44 -18 95 19 -45 79 -67 53 41 26 28 -29 -22 -6
0000c0 03 13 07 3d 08 d5 26 f4 f3 ea 29 0d dd 07 d2 e1
       3 19 7 61 8 -43 38 -12 -13 -22 41 13 -35 7 -46 -31
0000d0 3a bb 3f 07 0b ce 0a 2a 27 09 24 e6 b7 f9 ee 01
       58 -69 63 7 11 -50 10 42 39 9 36 -26 -73 -7 -18 1
0000e0 fe 5b 4b d0 47 de 42 81 e6 de f0 c7 24 b8 0f 19
       -2 91 75 -48 71 -34 66 -127 -26 -34 -16 -57 36 -72 15 25
0000f0 ed d7 0b e4 d0 4e f9 08 04 21 fe 1c da 2d 36 22
       -19 -41 11 -28 -48 78 -7 8 4 33 -2 28 -38 45 54 34

model_1/conv_dw_251_bn/FusedBatchNormV3;model_1/conv_dw_251/depthwise;model_1/conv_pw_248/Conv2D i1 [1, 3, 3, 64]
000000 09 0b 11 08 60 0e e0 48 0f 42 df 02 c3 cc 66 c7
       9 11 17 8 96 14 -32 72 15 66 -33 2 -61 -52 102 -57
000010 f7 2f 1e 2d 00 f8 e0 0a ea e2 37 fa 07 b5 ca 10
       -9 47 30 45 0 -8 -32 10 -22 -30 55 -6 7 -75 -54 16
000020 11 ef be f7 1d dd 2a ad fe e8 1d 24 e5 81 17 f2
       17 -17 -66 -9 29 -35 42 -83 -2 -24 29 36 -27 -127 23 -14
000030 21 7f 06 1f f7 08 e8 c3 c6 cc ef 8d 7f fd 1c fd
       33 127 6 31 -9 8 -24 -61 -58 -52 -17 -115 127 -3 28 -3
000040 e8 7f 20 7f 07 09 c3 7c 2b 7f 42 e3 ef 81 5c d9
       -24 127 32 127 7 9 -61 124 43 127 66 -29 -17 -127 92 -39
000050 1f e4 b5 cf 15 21 1d 4c 59 ec 7c ff 3e 19 15 28
       31 -28 -75 -49 21 33 29 76 89 -20 124 -1 62 25 21 40
000060 f2 81 81 df a1 15 e2 86 84 03 0b e8 20 cc 32 d9
       -14 -127 -127 -33 -95 21 -30 -122 -124 3 11 -24 32 -52 50 -39
000070 81 01 e2 f7 e8 81 e0 ff fd 14 81 0a eb 99 fb 08
       -127 1 -30 -9 -24 -127 -32 -1 -3 20 -127 10 -21 -103 -5 8
000080 20 42 f2 fd 37 17 dd 31 1a 1c 01 33 81 4e e2 2d
       32 66 -14 -3 55 23 -35 49 26 28 1 51 -127 78 -30 45
000090 3a f0 ec 8a 96 ed 03 39 1d 23 ca 11 35 49 fe 02
       58 -16 -20 -118 -106 -19 3 57 29 35 -54 17 53 73 -2 2
0000a0 e8 b6 ca 12 f7 14 02 03 fb 19 ba 07 d6 86 1d 13
       -24 -74 -54 18 -9 20 2 3 -5 25 -70 7 -42 -122 29 19
0000b0 ff 2e d7 f1 7f 2b f6 22 fa 4c 04 59 ce 81 d4 43
       -1 46 -41 -15 127 43 -10 34 -6 76 4 89 -50 -127 -44 67
0000c0 21 05 7f 3e fc d5 fe 56 72 17 df 04 d1 c6 81 40
       33 5 127 62 -4 -43 -2 86 114 23 -33 4 -47 -58 -127 64
0000d0 e3 17 d7 1b cd fd 3e 1a 24 ba 7f 22 b3 2f e3 d1
       -29 23 -41 27 -51 -3 62 26 36 -70 127 34 -77 47 -29 -47
0000e0 df 60 33 7f 20 e4 09 a9 19 d7 03 f6 fd f4 02 0a
       -33 96 51 127 32 -28 9 -87 25 -41 3 -10 -3 -12 2 10
0000f0 21 3a 4a 7f ef 15 b7 81 cc 81 e4 cb e5 fd 26 98
       33 58 74 127 -17 21 -73 -127 -52 -127 -28 -53 -27 -3 38 -104

model_1/conv_pw_251/Conv2D i1 [64, 1, 1, 64]
000000 0f 1a db bd d8 31 04 de ad 10 10 f7 ed b8 4e 2e
       15 26 -37 -67 -40 49 4 -34 -83 16 16 -9 -19 -72 78 46
000010 f6 c9 9f 9c f0 05 45 f6 f5 9b 0e f7 05 12 f3 00
       -10 -55 -97 -100 -16 5 69 -10 -11 -101 14 -9 5 18 -13 0
000020 21 28 d6 d2 65 02 11 fe c3 29 39 2b 34 f7 e7 ec
       33 40 -42 -46 101 2 17 -2 -61 41 57 43 52 -9 -25 -20
000030 7f f6 fb dc 30 b1 04 cf 1f a3 b2 05 06 30 da 19
       127 -10 -5 -36 48 -79 4 -49 31 -93 -78 5 6 48 -38 25
000040 e8 03 d5 61 cc e5 28 e6 b5 25 25 f3 4b 15 8b fd
       -24 3 -43 97 -52 -27 40 -26 -75 37 37 -13 75 21 -117 -3
000050 0c 1e 19 1d 0a 96 d9 f9 a3 db 2a cd 1a a6 dd b4
       12 30 25 29 10 -106 -39 -7 -93 -37 42 -51 26 -90 -35 -76
000060 0a f0 e0 d3 22 d0 d2 f0 c8 ef c5 48 14 18 14 9f
       10 -16 -32 -45 34 -48 -46 -16 -56 -17 -59 72 20 24 20 -97
000070 81 0a 2c ec aa 35 d8 b1 cd 24 9e cd f4 20 0d 13
       -127 10 44 -20 -86 53 -40 -79 -51 36 -98 -51 -12 32 13 19
000080 ef e1 fd f4 b9 ec fc f3 2f 43 f8 ed 1b e0 f2 7b
       -17 -31 -3 -12 -71 -20 -4 -13 47 67 -8 -19 27 -32 -14 123
000090 17 bc e4 ad fc 44 1e 1b d5 28 c3 fb 24 3b f0 09
       23 -68 -28 -83 -4 68 30 27 -43 40 -61 -5 36 59 -16 9
0000a0 15 b0 2f 36 b8 f6 81 0c cb 29 07 13 f3 2c df f5
       21 -80 47 54 -72 -10 -127 12 -53 41 7 19 -13 44 -33 -11
0000b0 0e 34 2b 0f e6 b4 dc c9 8e 25 61 ed 00 df cb e6
       14 52 43 15 -26 -76 -36 -55 -114 37 97 -19 0 -33 -53 -26
0000c0 4c 1a 81 3b 09 2f 2b 18 2a 0a 0a 36 3d 36 21 cd
       76 26 -127 59 9 47 43 24 42 10 10 54 61 54 33 -51
0000d0 ca 0c b9 0a 0e 54 f6 b9 12 0b f2 20 1f d3 ce ce
       -54 12 -71 10 14 84 -10 -71 18 11 -14 32 31 -45 -50 -50
0000e0 fc 0c 3f e0 38 d3 fe fe 01 dc 17 1a a5 d8 08 17
       -4 12 63 -32 56 -45 -2 -2 1 -36 23 26 -91 -40 8 23
0000f0 ea c0 f2 bf 22 1e f8 1f fc 1f 0e fd 5b 1a fb 35
       -22 -64 -14 -65 34 30 -8 31 -4 31 14 -3 91 26 -5 53

model_1/conv_dw_250_bn/FusedBatchNormV3;model_1/conv_dw_250/depthwise;model_1/conv_pw_248/Conv2D i1 [1, 3, 3, 64]
000000 e3 10 fb 55 d3 f8 d5 0c 81 d6 fd 84 a4 e9 01 a2
       -29 16 -5 85 -45 -8 -43 12 -127 -42 -3 -124 -92 -23 1 -94
000010 82 0e cc 14 1f 2b b9 2a 3a 21 81 19 c2 54 69 f6
       -126 14 -52 20 31 43 -71 42 58 33 -127 25 -62 84 105 -10
000020 f1 ff 44 fd e4 ef 7f d1 05 c6 26 ed d1 a8 81 64
       -15 -1 68 -3 -28 -17 127 -47 5 -58 38 -19 -47 -88 -127 100
000030 0d 22 81 e4 7f 02 21 92 d5 11 11 0a e3 df 06 ec
       13 34 -127 -28 127 2 33 -110 -43 17 17 10 -29 -33 6 -20
000040 4c 0b c2 7f 0d 81 81 40 2f 20 45 15 fb 6e 03 a8
       76 11 -62 127 13 -127 -127 64 47 32 69 21 -5 110 3 -88
000050 81 d7 e9 d4 7f b5 ab 7f 72 13 b0 e7 f6 cc c9 06
       -127 -41 -23 -44 127 -75 -85 127 114 19 -80 -25 -10 -52 -55 6
000060 54 1f 16 ff 5c c9 f1 f6 aa 07 f4 81 ba ea 94 7f
       84 31 22 -1 92 -55 -15 -10 -86 7 -12 -127 -70 -22 -108 127
000070 fb 7f c1 e1 e6 00 ef 81 ce 03 10 ff 81 a7 fc fb
       -5 127 -63 -31 -26 0 -17 -127 -50 3 16 -1 -127 -89 -4 -5
000080 7f 34 e2 5b 21 17 1c b8 27 ee 28 4e c0 23 2c fd
       127 52 -30 91 33 23 28 -72 39 -18 40 78 -64 35 44 -3
000090 8e fc 48 05 18 e0 cc 00 2d fe 65 2c 56 19 c0 14
       -114 -4 72 5 24 -32 -52 0 45 -2 101 44 86 25 -64 20
0000a0 00 34 62 28 f4 e9 82 af 81 1d fa a8 fc cf b0 14
       0 52 98 40 -12 -23 -126 -81 -127 29 -6 -88 -4 -49 -80 20
0000b0 fb 0b 2d 19 52 14 27 90 37 09 03 f2 f8 34 f0 49
       -5 11 45 25 82 20 39 -112 55 9 3 -14 -8 52 -16 73
0000c0 e6 30 9c 17 7f f2 ea 01 87 dd 26 9e 99 b7 12 bc
       -26 48 -100 23 127 -14 -22 1 -121 -35 38 -98 -103 -73 18 -68
0000d0 db c9 ff f6 e8 1f 9c c1 31 7f 1c b4 ee 7f 5b 10
       -37 -55 -1 -10 -24 31 -100 -63 49 127 28 -76 -18 127 91 16
0000e0 18 e7 4f a5 d5 15 f4 84 0b b8 6b de 17 81 44 e3
       24 -25 79 -91 -43 21 -12 -124 11 -72 107 -34 23 -127 68 -29
0000f0 10 fc ca f9 05 21 d4 13 81 23 36 7f e3 66 bf 0c
       16 -4 -54 -7 5 33 -44 19 -127 35 54 127 -29 102 -65 12

model_1/conv_pw_250/Conv2D i1 [64, 1, 1, 64]
000000 05 36 cc f9 12 e1 f6 50 0c ca 40 ee a2 f7 81 2e
       5 54 -52 -7 18 -31 -10 80 12 -54 64 -18 -94 -9 -127 46
000010 d1 09 db 47 eb a4 ef 52 0b 04 20 21 13 e8 2a fb
       -47 9 -37 71 -21 -92 -17 82 11 4 32 33 19 -24 42 -5
000020 a3 a1 ff fd f3 7a 0c 15 d9 2f db f4 26 90 ee 0b
       -93 -95 -1 -3 -13 122 12 21 -39 47 -37 -12 38 -112 -18 11
000030 25 15 f8 13 6c 11 39 e2 c3 1b 87 bc 7d 2f 5d d3
       37 21 -8 19 108 17 57 -30 -61 27 -121 -68 125 47 93 -45
000040 f3 50 f5 33 11 0b d1 9e e4 fa f6 e3 d9 24 d5 61
       -13 80 -11 51 17 11 -47 -98 -28 -6 -10 -29 -39 36 -43 97
000050 0b c3 f3 01 b3 e6 16 17 bb fb fc 0a c2 fd e2 c8
       11 -61 -13 1 -77 -26 22 23 -69 -5 -4 10 -62 -3 -30 -56
000060 f6 1f c1 9a 3b e0 32 fd 01 9d 0d fe 38 f9 d2 f2
       -10 31 -63 -102 59 -32 50 -3 1 -99 13 -2 56 -7 -46 -14
000070 10 ea c1 f9 33 75 d0 d5 1a 08 0a 13 54 b9 59 81
       16 -22 -63 -7 51 117 -48 -43 26 8 10 19 84 -71 89 -127
000080 1b d5 16 e5 39 c5 e5 21 d9 2c e8 ee 10 aa df fc
       27 -43 22 -27 57 -59 -27 33 -39 44 -24 -18 16 -86 -33 -4
000090 3b 7f 14 fa ff 0b fe fa 0b 05 e8 42 cd eb fb 3a
       59 127 20 -6 -1 11 -2 -6 11 5 -24 66 -51 -21 -5 58
0000a0 0c eb 07 56 fd f9 ca 18 d8 16 5b 19 d2 10 31 ec
       12 -21 7 86 -3 -7 -54 24 -40 22 91 25 -46 16 49 -20
0000b0 ee 03 5e e6 2a 0b d3 f4 17 da f1 c0 fa e1 d0 04
       -18 3 94 -26 42 11 -45 -12 23 -38 -15 -64 -6 -31 -48 4
0000c0 25 24 77 74 f3 df ff e2 c6 28 07 1e fb 89 11 fb
       37 36 119 116 -13 -33 -1 -30 -58 40 7 30 -5 -119 17 -5
0000d0 e6 cb da e9 24 01 99 9b ee 28 c9 52 02 c8 d9 c2
       -26 -53 -38 -23 36 1 -103 -101 -18 40 -55 82 2 -56 -39 -62
0000e0 2f 16 0f 4b ea 20 0b ef 4e a0 3d ea e0 b3 58 f8
       47 22 15 75 -22 32 11 -17 78 -96 61 -22 -32 -77 88 -8
0000f0 45 9b 01 cf f0 43 20 ec 17 03 81 bc 58 1b ee d1
       69 -101 1 -49 -16 67 32 -20 23 3 -127 -68 88 27 -18 -47

model_1/conv2d_1/Conv2D i1 [192, 1, 1, 64]
000000 f3 0a 01 1e d5 f9 0b 10 ba 1c 3b 08 29 f1 bf 31
       -13 10 1 30 -43 -7 11 16 -70 28 59 8 41 -15 -65 49
000010 f1 35 52 3e 31 dc f8 dc 11 fa ca ee 06 42 ef 22
       -15 53 82 62 49 -36 -8 -36 17 -6 -54 -18 6 66 -17 34
000020 db 0e a8 81 97 01 1e 05 00 f9 2d f8 ed 03 25 25
       -37 14 -88 -127 -105 1 30 5 0 -7 45 -8 -19 3 37 37
000030 3d b5 01 26 58 fa ca d6 ff f2 17 ec dc d4 d2 d9
       61 -75 1 38 88 -6 -54 -42 -1 -14 23 -20 -36 -44 -46 -39
000040 29 d4 f2 25 f4 81 24 2a e1 fd e6 eb 05 d8 0a 42
       41 -44 -14 37 -12 -127 36 42 -31 -3 -26 -21 5 -40 10 66
000050 b6 dd 14 29 2f 1a 41 0e 54 df 13 0d 03 b2 ff cd
       -74 -35 20 41 47 26 65 14 84 -33 19 13 3 -78 -1 -51
000060 26 c2 ca 06 f3 1f f7 90 f6 f9 f5 f1 f9 f1 3f e2
       38 -62 -54 6 -13 31 -9 -112 -10 -7 -11 -15 -7 -15 63 -30
000070 f7 f2 c8 3a e6 1b db eb 25 cf fe ab 46 10 14 c0
       -9 -14 -56 58 -26 27 -37 -21 37 -49 -2 -85 70 16 20 -64
000080 f6 37 37 f5 e4 32 27 4c 0e e6 3f d9 1c cd 2d d8
       -10 55 55 -11 -28 50 39 76 14 -26 63 -39 28 -51 45 -40
000090 20 28 81 02 63 e4 e0 58 1f d8 f5 de 07 0b 1e f1
       32 40 -127 2 99 -28 -32 88 31 -40 -11 -34 7 11 30 -15
0000a0 2e d6 0b d5 fa f9 3a 29 d8 ff 7b 2a b3 e8 74 3d
       46 -42 11 -43 -6 -7 58 41 -40 -1 123 42 -77 -24 116 61
0000b0 38 e3 0d f6 e6 bb 0e 02 0d 1b a8 59 fa 3f c2 a6
       56 -29 13 -10 -26 -69 14 2 13 27 -88 89 -6 63 -62 -90
0000c0 af 2b 01 56 cf e9 14 de bb af e1 f7 59 11 30 a4
       -81 43 1 86 -49 -23 20 -34 -69 -81 -31 -9 89 17 48 -92
0000d0 ff 16 06 d6 e3 1e d4 85 db de fd b3 1e d6 b9 89
       -1 22 6 -42 -29 30 -44 -123 -37 -34 -3 -77 30 -42 -71 -119
0000e0 cf e5 71 81 db bd 6a 01 1e ea bb d9 cf 58 a1 16
       -49 -27 113 -127 -37 -67 106 1 30 -22 -69 -39 -49 88 -95 22
0000f0 e2 5f 40 ab 30 f4 21 00 d2 c5 c6 09 77 53 14 a3
       -30 95 64 -85 48 -12 33 0 -46 -59 -58 9 119 83 20 -93

model_1/conv2d_3/Conv2D i1 [64, 1, 1, 64]
000000 10 f0 ef de 29 03 bd 1b d8 d5 e0 c7 d4 ed 08 17
       16 -16 -17 -34 41 3 -67 27 -40 -43 -32 -57 -44 -19 8 23
000010 0a df 3f 09 0b ce 1c 1f 4f 1f f9 fb 81 f9 58 ec
       10 -33 63 9 11 -50 28 31 79 31 -7 -5 -127 -7 88 -20
000020 05 eb f6 10 c1 d6 19 b5 1e e2 e3 04 ce 03 1b db
       5 -21 -10 16 -63 -42 25 -75 30 -30 -29 4 -50 3 27 -37
000030 de cf 51 d3 17 e0 01 00 28 ed bb f5 37 2f 66 ce
       -34 -49 81 -45 23 -32 1 0 40 -19 -69 -11 55 47 102 -50
000040 fb a6 01 ac 9f 0c 01 a1 c0 2c 28 f2 b4 e9 19 c1
       -5 -90 1 -84 -97 12 1 -95 -64 44 40 -14 -76 -23 25 -63
000050 dc 38 b3 b1 c5 ca fa 1d fd 39 30 45 27 e2 3a 96
       -36 56 -77 -79 -59 -54 -6 29 -3 57 48 69 39 -30 58 -106
000060 fe 27 05 09 e6 2b eb 81 32 44 da 34 24 a6 3f e5
       -2 39 5 9 -26 43 -21 -127 50 68 -38 52 36 -90 63 -27
000070 00 4d 04 01 22 07 ac da b2 cc 05 42 fe 02 1f c8
       0 77 4 1 34 7 -84 -38 -78 -52 5 66 -2 2 31 -56
000080 15 0f d7 a8 5a 2b 97 12 fb ca fb 19 fa 22 26 49
       21 15 -41 -88 90 43 -105 18 -5 -54 -5 25 -6 34 38 73
000090 36 d6 e5 fc f5 ef 48 e5 7f f3 3f 99 81 1b 18 f2
       54 -42 -27 -4 -11 -17 72 -27 127 -13 63 -103 -127 27 24 -14
0000a0 ee 0e 08 e2 da c3 39 56 22 e3 fe e3 0b 0d 68 ed
       -18 14 8 -30 -38 -61 57 86 34 -29 -2 -29 11 13 104 -19
0000b0 e3 f8 e4 ea 4f 08 39 45 08 d1 d3 c5 df 24 20 c6
       -29 -8 -28 -22 79 8 57 69 8 -47 -45 -59 -33 36 32 -58
0000c0 eb 21 22 15 1c e5 ef 0b 0d 1a 04 bb f8 1c 7e f2
       -21 33 34 21 28 -27 -17 11 13 26 4 -69 -8 28 126 -14
0000d0 f2 e8 e7 e4 0e 01 4b fd d3 06 f1 f7 da be 32 21
       -14 -24 -25 -28 14 1 75 -3 -45 6 -15 -9 -38 -66 50 33
0000e0 d9 f0 12 13 d5 37 28 c1 29 0d 0c f3 eb 47 dc 2e
       -39 -16 18 19 -43 55 40 -63 41 13 12 -13 -21 71 -36 46
0000f0 06 06 7f d6 4d d4 0b 15 ec 0b f7 08 04 17 51 02
       6 6 127 -42 77 -44 11 21 -20 11 -9 8 4 23 81 2

model_1/conv_dw_249_bn/FusedBatchNormV3;model_1/conv_dw_249/depthwise;model_1/conv_pw_248/Conv2D i1 [1, 3, 3, 64]
000000 7f 34 db ee 7f 65 d2 08 ec 93 0d f6 2e c3 42 f5
       127 52 -37 -18 127 101 -46 8 -20 -109 13 -10 46 -61 66 -11
000010 4a e5 e5 0d d3 e8 2f e3 52 e8 a1 04 c4 e3 fc 4f
       74 -27 -27 13 -45 -24 47 -29 82 -24 -95 4 -60 -29 -4 79
000020 13 f2 5c f0 7c 7f bd 06 81 18 f9 a9 2d 7b 4e 7f
       19 -14 92 -16 124 127 -67 6 -127 24 -7 -87 45 123 78 127
000030 ea d6 0a 81 c0 de ec 63 53 27 8d 0c be 34 a0 16
       -22 -42 10 -127 -64 -34 -20 99 83 39 -115 12 -66 52 -96 22
000040 fb 3f 45 90 2b 14 b4 2a 78 12 ac 10 14 9b 4c d8
       -5 63 69 -112 43 20 -76 42 120 18 -84 16 20 -101 76 -40
000050 49 02 12 ba 19 12 81 f7 bb fd 81 d4 b9 b0 05 f7
       73 2 18 -70 25 18 -127 -9 -69 -3 -127 -44 -71 -80 5 -9
000060 cf 81 32 0e 11 e3 b9 d7 d6 63 21 7f 7f 30 f7 4a
       -49 -127 50 14 17 -29 -71 -41 -42 99 33 127 127 48 -9 74
000070 a5 e2 a2 ad 5d 12 ff e7 e3 1c f1 f5 e7 d4 aa e2
       -91 -30 -94 -83 93 18 -1 -25 -29 28 -15 -11 -25 -44 -86 -30
000080 f7 7f 20 ef 4a 81 05 7f 05 7f 81 f1 ec e1 38 eb
       -9 127 32 -17 74 -127 5 127 5 127 -127 -15 -20 -31 56 -21
000090 37 4b f3 b9 07 e0 d2 36 3e df e8 ed 44 de e4 d1
       55 75 -13 -71 7 -32 -46 54 62 -33 -24 -19 68 -34 -28 -47
0000a0 7f f9 41 f2 a1 13 09 e7 ea 05 31 11 29 81 fd ca
       127 -7 65 -14 -95 19 9 -25 -22 5 49 17 41 -127 -3 -54
0000b0 1b 3c b6 b9 c3 f9 05 c5 ba 7f e1 f1 40 3b 81 95
       27 60 -74 -71 -61 -7 5 -59 -70 127 -31 -15 64 59 -127 -107
0000c0 e6 d1 3f 7f f7 12 28 d5 ea 1c 0d 0c 7f b0 2c 11
       -26 -47 63 127 -9 18 40 -43 -22 28 13 12 127 -80 44 17
0000d0 95 d9 bd 7f d1 13 d3 81 34 7f b9 fe 85 18 0c 51
       -107 -39 -67 127 -47 19 -45 -127 52 127 -71 -2 -123 24 12 81
0000e0 f1 1a 7f 7f fe c3 c7 24 ec 99 03 d5 04 4f 7f 74
       -15 26 127 127 -2 -61 -57 36 -20 -103 3 -43 4 79 127 116
0000f0 01 72 15 c1 81 81 7f 53 07 02 05 2b b4 7f e8 27
       1 114 21 -63 -127 -127 127 83 7 2 5 43 -76 127 -24 39

model_1/conv_pw_249/Conv2D i1 [64, 1, 1, 64]
000000 0c f5 05 18 f4 aa 33 f9 fe 17 c6 3c a4 fd e0 13
       12 -11 5 24 -12 -86 51 -7 -2 23 -58 60 -92 -3 -32 19
000010 c0 2b 16 1a 57 3a e7 0e d4 ef af e0 44 17 14 cd
       -64 43 22 26 87 58 -25 14 -44 -17 -81 -32 68 23 20 -51
000020 c3 09 1a eb 30 3a ba e2 f8 20 da e1 fb 27 7b f5
       -61 9 26 -21 48 58 -70 -30 -8 32 -38 -31 -5 39 123 -11
000030 e3 ee f5 10 d1 7f 55 ad f1 e1 02 c4 37 22 f4 df
       -29 -18 -11 16 -47 127 85 -83 -15 -31 2 -60 55 34 -12 -33
000040 1f e3 23 d6 b3 bb ff 3b 03 bf ec 0c f5 5a e8 3b
       31 -29 35 -42 -77 -69 -1 59 3 -65 -20 12 -11 90 -24 59
000050 af 4b e9 34 c5 27 71 cc cf 0e cc 0d 14 96 d1 e3
       -81 75 -23 52 -59 39 113 -52 -49 14 -52 13 20 -106 -47 -29
000060 dc 81 14 e6 01 18 0f ec f4 ec e6 fe 2c 47 1a 0e
       -36 -127 20 -26 1 24 15 -20 -12 -20 -26 -2 44 71 26 14
000070 b5 51 b5 10 01 35 12 c2 2d 10 f4 dd f5 b5 ce 07
       -75 81 -75 16 1 53 18 -62 45 16 -12 -35 -11 -75 -50 7
000080 65 0d 17 43 23 d5 e0 81 ea f5 44 aa e8 8f db d5
       101 13 23 67 35 -43 -32 -127 -22 -11 68 -86 -24 -113 -37 -43
000090 02 f2 8e e5 b1 1f 06 cd 23 d5 c4 d7 39 e7 f8 f4
       2 -14 -114 -27 -79 31 6 -51 35 -43 -60 -41 57 -25 -8 -12
0000a0 ce 74 6a 1b e1 c2 fb 5a 10 14 be ba 1f 05 f8 5f
       -50 116 106 27 -31 -62 -5 90 16 20 -66 -70 31 5 -8 95
0000b0 fd b6 ff f1 f5 03 37 26 f1 1b 13 ea a1 04 1b 37
       -3 -74 -1 -15 -11 3 55 38 -15 27 19 -22 -95 4 27 55
0000c0 fd 04 f9 f9 9a bb ea 3e 26 19 2b 0a d2 f2 1b 02
       -3 4 -7 -7 -102 -69 -22 62 38 25 43 10 -46 -14 27 2
0000d0 d2 e8 e6 1f 0d 7f 0d e6 c7 0f 28 e1 c6 be 3f e5
       -46 -24 -26 31 13 127 13 -26 -57 15 40 -31 -58 -66 63 -27
0000e0 ca d9 13 e4 2d ff ec 04 0d d3 46 f1 fd 16 35 03
       -54 -39 19 -28 45 -1 -20 4 13 -45 70 -15 -3 22 53 3
0000f0 06 d9 e3 fc f8 1c 1a f3 01 eb 33 c8 a3 e7 04 c5
       6 -39 -29 -4 -8 28 26 -13 1 -21 51 -56 -93 -25 4 -59

model_1/conv_dw_248_bn/FusedBatchNormV3;model_1/conv_dw_248/depthwise;model_1/conv_pw_248/Conv2D i1 [1, 3, 3, 64]
000000 09 17 ef 18 1b 30 43 f5 11 f1 49 29 64 e3 d1 30
       9 23 -17 24 27 48 67 -11 17 -15 73 41 100 -29 -47 48
000010 d0 18 f1 7f bf 27 ed 81 af ea 95 0e fe 5f 28 02
       -48 24 -15 127 -65 39 -19 -127 -81 -22 -107 14 -2 95 40 2
000020 e3 18 f1 39 4d e2 f2 cc f4 c4 24 fb 0d d2 f6 3f
       -29 24 -15 57 77 -30 -14 -52 -12 -60 36 -5 13 -46 -10 63
000030 86 03 0b ba 2c 12 93 e2 fb e2 ee e6 1d 2f 2e 51
       -122 3 11 -70 44 18 -109 -30 -5 -30 -18 -26 29 47 46 81
000040 f3 ed 94 a1 f8 5f e5 fa 95 3c e0 33 01 22 81 5d
       -13 -19 -108 -95 -8 95 -27 -6 -107 60 -32 51 1 34 -127 93
000050 bf 38 42 3a 48 c8 f7 3a 81 08 88 ea 21 6d 81 dc
       -65 56 66 58 72 -56 -9 58 -127 8 -120 -22 33 109 -127 -36
000060 05 7f ec b3 52 2e c1 c1 04 a5 41 c9 f5 81 e0 0b
       5 127 -20 -77 82 46 -63 -63 4 -91 65 -55 -11 -127 -32 11
000070 ec 92 e7 4a 1d 1f d5 fd 37 d1 85 c2 76 15 cd 7f
       -20 -110 -25 74 29 31 -43 -3 55 -47 -123 -62 118 21 -51 127
000080 ec 00 d1 00 2b 87 cc 21 e0 2c a4 09 f0 3c d3 7f
       -20 0 -47 0 43 -121 -52 33 -32 44 -92 9 -16 60 -45 127
000090 ea 07 21 1b 25 34 05 ea c6 cc 27 0c bc 26 31 06
       -22 7 33 27 37 52 5 -22 -58 -52 39 12 -68 38 49 6
0000a0 f6 51 3e f1 de 38 af 28 f7 d3 b6 d0 29 0d 08 ae
       -10 81 62 -15 -34 56 -81 40 -9 -45 -74 -48 41 13 8 -82
0000b0 10 be 51 d9 ec cd 41 00 a0 11 3c ed 7c f7 c3 cd
       16 -66 81 -39 -20 -51 65 0 -96 17 60 -19 124 -9 -61 -51
0000c0 7f fc de 61 2b c6 44 da d7 be 2d 12 7f f5 9d e8
       127 -4 -34 97 43 -58 68 -38 -41 -66 45 18 127 -11 -99 -24
0000d0 c0 01 f8 47 94 b4 65 96 32 f7 7f 7f 81 7f 9b d7
       -64 1 -8 71 -108 -76 101 -106 50 -9 127 127 -127 127 -101 -41
0000e0 16 e2 f7 7f fb 81 81 ac b1 57 fd d7 e3 d3 af af
       22 -30 -9 127 -5 -127 -127 -84 -79 87 -3 -41 -29 -45 -81 -81
0000f0 85 1f 0d 81 7f 04 81 12 32 08 06 fe 81 47 7f 4d
       -123 31 13 -127 127 4 -127 18 50 8 6 -2 -127 71 127 77

model_1/conv_pw_248/Conv2D i1 [64, 1, 1, 64]
000000 cc 2d a6 94 1a e5 55 0a f7 b7 b7 eb ea 1c c4 cf
       -52 45 -90 -108 26 -27 85 10 -9 -73 -73 -21 -22 28 -60 -49
000010 06 17 15 cb b1 12 10 02 eb 08 f0 1b af 81 c9 1e
       6 23 21 -53 -79 18 16 2 -21 8 -16 27 -81 -127 -55 30
000020 e3 9f 16 44 0a f5 13 a4 b0 df 1a f9 ed 30 f5 57
       -29 -97 22 68 10 -11 19 -92 -80 -33 26 -7 -19 48 -11 87
000030 d5 f3 f3 05 35 14 15 c1 db 15 e8 f8 27 01 f3 c4
       -43 -13 -13 5 53 20 21 -63 -37 21 -24 -8 39 1 -13 -60
000040 15 02 07 cb 31 fc 2c 3d cb e8 0a 10 2d 14 15 fd
       21 2 7 -53 49 -4 44 61 -53 -24 10 16 45 20 21 -3
000050 e9 47 48 11 96 03 4c b3 f2 30 de fa 1f f2 31 0d
       -23 71 72 17 -106 3 76 -77 -14 48 -34 -6 31 -14 49 13
000060 57 2d 4d cc fc 8e 1d 13 fd 27 81 03 0e 5e 8b 2a
       87 45 77 -52 -4 -114 29 19 -3 39 -127 3 14 94 -117 42
000070 d6 0c b0 fa d5 0a e6 0b 88 c4 e5 06 c0 3b d5 ea
       -42 12 -80 -6 -43 10 -26 11 -120 -60 -27 6 -64 59 -43 -22
000080 19 ca 0e d7 14 02 ef cc 0b c8 df 41 ff d8 22 ca
       25 -54 14 -41 20 2 -17 -52 11 -56 -33 65 -1 -40 34 -54
000090 17 fb 22 81 fb 02 44 f5 d3 ea 0d e6 34 f8 d0 36
       23 -5 34 -127 -5 2 68 -11 -45 -22 13 -26 52 -8 -48 54
0000a0 ea 8c 1d ba f4 d9 25 1e e3 25 d2 44 15 1c ed ba
       -22 -116 29 -70 -12 -39 37 30 -29 37 -46 68 21 28 -19 -70
0000b0 18 2c f6 fd 10 03 f7 15 e3 39 08 37 ec e5 23 f3
       24 44 -10 -3 16 3 -9 21 -29 57 8 55 -20 -27 35 -13
0000c0 23 0c 36 da 09 d9 ce 30 1d f6 ec 18 0e 28 33 fb
       35 12 54 -38 9 -39 -50 48 29 -10 -20 24 14 40 51 -5
0000d0 2e cd 2f e7 bb f2 d6 2d 0a 1e fb e7 3f 0a 2f 27
       46 -51 47 -25 -69 -14 -42 45 10 30 -5 -25 63 10 47 39
0000e0 37 03 ff e7 18 c1 36 46 0a ea de 15 1a e1 04 1f
       55 3 -1 -25 24 -63 54 70 10 -22 -34 21 26 -31 4 31
0000f0 29 57 0f 0e 81 0e 23 f8 d9 14 22 11 25 38 dc 13
       41 87 15 14 -127 14 35 -8 -39 20 34 17 37 56 -36 19

model_1/conv2d_4/Conv2D i1 [192, 1, 1, 64]
000000 eb 06 d1 12 2b 3e dc f8 dc 0c e1 21 07 c0 cd ee
       -21 6 -47 18 43 62 -36 -8 -36 12 -31 33 7 -64 -51 -18
000010 40 05 2b c6 13 f4 2a 5a 03 da 1b 15 e9 1f da ee
       64 5 43 -58 19 -12 42 90 3 -38 27 21 -23 31 -38 -18
000020 00 29 16 3e 20 db ce 59 79 00 01 ef d0 f1 d3 d4
       0 41 22 62 32 -37 -50 89 121 0 1 -17 -48 -15 -45 -44
000030 e5 f8 e6 e0 07 fb 01 e8 81 18 ec e6 14 66 44 09
       -27 -8 -26 -32 7 -5 1 -24 -127 24 -20 -26 20 102 68 9
000040 c6 ff 0c 04 2f f5 e6 c9 e3 d6 ee c0 d3 9c 42 5d
       -58 -1 12 4 47 -11 -26 -55 -29 -42 -18 -64 -45 -100 66 93
000050 22 d5 fb 1b ea cd 00 db 29 06 08 f1 ce cc 14 b1
       34 -43 -5 27 -22 -51 0 -37 41 6 8 -15 -50 -52 20 -79
000060 04 0c f4 ee 14 e0 fa cd df 76 ed 59 d7 b2 b9 e9
       4 12 -12 -18 20 -32 -6 -51 -33 118 -19 89 -41 -78 -71 -23
000070 00 e7 1d ed ec d3 c6 f2 c2 81 dc f9 b7 23 d6 15
       0 -25 29 -19 -20 -45 -58 -14 -62 -127 -36 -7 -73 35 -42 21
000080 f9 0f 00 1c d9 62 35 c2 1f 10 f9 ff 0f 1e 28 09
       -7 15 0 28 -39 98 53 -62 31 16 -7 -1 15 30 40 9
000090 05 1c f5 fb dd 15 24 31 d0 5c 1f 36 21 ec e0 ea
       5 28 -11 -5 -35 21 36 49 -48 92 31 54 33 -20 -32 -22
0000a0 2f 2a 1b 00 3e 10 54 02 11 18 fc f8 f3 a3 04 04
       47 42 27 0 62 16 84 2 17 24 -4 -8 -13 -93 4 4
0000b0 0d 45 0d 16 f6 df 24 13 06 0d 19 14 d7 7f 17 dc
       13 69 13 22 -10 -33 36 19 6 13 25 20 -41 127 23 -36
0000c0 ee 1e 24 ff c9 a7 7f 19 3a 2d d1 d9 19 75 f7 d0
       -18 30 36 -1 -55 -89 127 25 58 45 -47 -39 25 117 -9 -48
0000d0 eb 2f 0b 20 1a d4 e5 b7 ee 10 d0 e0 5e e3 eb 62
       -21 47 11 32 26 -44 -27 -73 -18 16 -48 -32 94 -29 -21 98
0000e0 e1 17 13 dc c3 ff d8 e7 ac f0 2d 00 4a ff 07 05
       -31 23 19 -36 -61 -1 -40 -25 -84 -16 45 0 74 -1 7 5
0000f0 d7 ea fc e0 04 5e d0 e4 4f e9 06 3d 30 b7 c9 f1
       -41 -22 -4 -32 4 94 -48 -28 79 -23 6 61 48 -73 -55 -15
