art_mcx/MCX/project/user/smartcar_used19.tflite (tflite, 302960 bytes, 42 tensors)

model_1/conv1/Conv2D i1 [8, 3, 3, 3]
-41 6 -30 -16 -14 -23 -11 -13
19 1 44 13 29 26 21 -17
21 -15 125 104 76 127 110 83
15 63 -42 -8 74 -64 -57 91
-33 -51 55 -4 -24 108 -82 -98
127 -28 -88 70 15 -23 74 -51
-64 74 -10 -53 40 11 42 22
-65 86 11 -97 70 -10 -60 80
13 -92 124 4 -127 91 -19 -74
50 -11 -40 68 -16 -53 50 -24
-28 0 0 0 0 0 0 0
0 0 0 0 0 0 0 0
0 0 0 0 0 0 0 0
0 0 0 0 -28 -21 -13 85
83 24 42 127 62 -26 -25 -10
117 41 -6 84 67 0 -41 -1
9 38 -1 5 -40 31 21 23
59 11 29 90 34 -7 29 15
92 97 12 67 127 42 3 36
26 75 26 -14 34 50 15 -1
7 12 -74 -77 -73 -85 -74 -127
-17 -17 46 -59 -90 -54 -57 -74
-118 -2 -38 14 -28 -47 58 -35
-27 33 -5 -18 44 0 0 0
0 0 0 0 0 0 0 0
0 0 0 0 0 0 0 0
0 0 0 0 0 0 0 0
00000000: d706 e2f0 f2e9 f5f3 1301 2c0d 1d1a 15ef
00000010: 15f1 7d68 4c7f 6e53 0f3f d6f8 4ac0 c75b
00000020: dfcd 37fc e86c ae9e 7fe4 a846 0fe9 4acd
00000030: c04a f6cb 280b 2a16 bf56 0b9f 46f6 c450
00000040: 0da4 7c04 815b edb6 32f5 d844 f0cb 32e8
00000050: e400 0000 0000 0000 0000 0000 0000 0000
00000060: 0000 0000 0000 0000 0000 0000 e4eb f355
00000070: 5318 2a7f 3ee6 e7f6 7529 fa54 4300 d7ff
00000080: 0926 ff05 d81f 1517 3b0b 1d5a 22f9 1d0f
00000090: 5c61 0c43 7f2a 0324 1a4b 1af2 2232 0fff
000000a0: 070c b6b3 b7ab b681 efef 2ec5 a6ca c7b6
000000b0: 8afe da0e e4d1 3add e521 fbee 2c00 0000
000000c0: 0000 0000 0000 0000 0000 0000 0000 0000
000000d0: 0000 0000 0000 0000

model_1/conv_dw_1_bn/FusedBatchNormV3;model_1/conv_dw_1/depthwise i1 [1, 3, 3, 8]
-8 -8 10 117 62 6 -15 -44
-127 18 127 126 43 5 -3 -109
7 -10 -56 127 9 -3 -3 -53
7 27 1 114 -127 4 17 -127
-43 127 94 79 -7 -127 127 -120
15 -26 -37 36 9 33 -8 -101
2 -19 -13 75 -7 5 -9 -89
0 -10 -34 19 0 17 5 -37
-8 -12 25 18 7 -7 10 -64
00000000: f8f8 0a75 3e06 f1d4 8112 7f7e 2b05 fd93
00000010: 07f6 c87f 09fd fdcb 071b 0172 8104 1181
00000020: d57f 5e4f f981 7f88 0fe6 db24 0921 f89b
00000030: 02ed f34b f905 f7a7 00f6 de13 0011 05db
00000040: f8f4 1912 07f9 0ac0

model_1/conv_pw_1/Conv2D i1 [16, 1, 1, 8]
-11 -25 0 0 -45 -127 -18 0
0 0 0 0 0 0 0 0
10 -5 3 0 40 127 17 0
0 0 0 0 0 0 0 0
0 0 0 0 0 0 0 0
-14 -42 -9 0 -54 -127 -20 0
-1 127 -1 0 0 2 0 0
0 17 -127 0 2 -1 1 0
0 0 0 0 0 0 0 0
-8 -19 0 0 -19 -127 -21 0
0 0 0 0 0 0 0 0
0 0 0 0 0 0 0 0
-1 127 16 0 0 0 -1 0
11 14 4 0 38 127 17 0
0 0 0 0 0 0 0 0
0 0 0 0 0 0 0 0
00000000: f5e7 0000 d381 ee00 0000 0000 0000 0000
00000010: 0afb 0300 287f 1100 0000 0000 0000 0000
00000020: 0000 0000 0000 0000 f2d6 f700 ca81 ec00
00000030: ff7f ff00 0002 0000 0011 8100 02ff 0100
00000040: 0000 0000 0000 0000 f8ed 0000 ed81 eb00
00000050: 0000 0000 0000 0000 0000 0000 0000 0000
00000060: ff7f 1000 0000 ff00 0b0e 0400 267f 1100
00000070: 0000 0000 0000 0000 0000 0000 0000 0000

model_1/conv_dw_2_bn/FusedBatchNormV3;model_1/conv_dw_2/depthwise i1 [1, 3, 3, 16]
76 -84 127 -97 -93 7 -127 -18
-68 -22 127 125 6 -39 -85 -68
-73 10 -2 -32 -97 127 -20 -8
-103 127 53 66 -71 15 -59 -94
-10 -94 13 -89 -83 8 -16 -7
-10 -98 -46 -81 -3 -6 -87 -127
127 -5 -45 -78 -28 -16 -39 127
-127 -19 114 117 -104 127 -127 18
-98 -89 -6 -22 -127 -125 -10 123
12 90 2 29 -127 33 -116 -16
-19 -127 -8 67 -89 -17 9 11
73 -87 -51 -17 -30 6 -122 -102
6 -101 11 -125 102 5 -4 1
-91 4 92 127 -38 -10 -38 45
-15 48 0 -65 38 2 -3 11
-114 7 106 109 -4 -7 -39 -105
8 -102 -2 127 -96 9 0 -11
-35 -9 82 8 -47 1 -40 -89
00000000: 4cac 7f9f a307 81ee bcea 7f7d 06d9 abbc
00000010: b70a fee0 9f7f ecf8 997f 3542 b90f c5a2
00000020: f6a2 0da7 ad08 f0f9 f69e d2af fdfa a981
00000030: 7ffb d3b2 e4f0 d97f 81ed 7275 987f 8112
00000040: 9ea7 faea 8183 f67b 0c5a 021d 8121 8cf0
00000050: ed81 f843 a7ef 090b 49a9 cdef e206 869a
00000060: 069b 0b83 6605 fc01 a504 5c7f daf6 da2d
00000070: f130 00bf 2602 fd0b 8e07 6a6d fcf9 d997
00000080: 089a fe7f a009 00f5 ddf7 5208 d101 d8a7

model_1/conv_pw_2/Conv2D i1 [32, 1, 1, 16]
-12 0 127 0 0 10 -20 2
0 9 0 0 6 38 0 0
-127 0 14 0 0 12 -1 0
0 8 0 0 0 -13 0 0
-22 0 -127 0 0 60 0 0
0 3 0 0 6 115 0 0
-33 0 -95 0 0 -8 2 0
0 3 0 0 5 127 0 0
-42 0 -66 0 0 19 -3 -59
0 -8 0 0 -99 -127 0 0
2 0 5 0 0 -1 114 53
0 0 0 0 -127 8 0 0
0 0 2 0 0 0 19 127
0 -2 0 0 -13 2 0 0
0 0 0 0 0 0 0 0
0 0 0 0 0 0 0 0
126 0 -90 0 0 -55 -39 9
0 127 0 0 62 -58 0 0
-1 0 -6 0 0 1 -18 127
0 1 0 0 43 -7 0 0
0 0 0 0 0 0 0 0
0 0 0 0 0 0 0 0
1 0 -3 0 0 -2 -70 127
0 0 0 0 67 -2 0 0
13 0 127 0 0 -10 -33 -5
0 -2 0 0 -2 67 0 0
74 0 84 0 0 68 -22 -7
0 -4 0 0 12 127 0 0
-42 0 -113 0 0 -1 54 13
0 -12 0 0 41 -127 0 0
127 0 -33 0 0 76 23 -9
0 42 0 0 0 -71 0 0
00000000: f400 7f00 000a ec02 0009 0000 0626 0000
00000010: 8100 0e00 000c ff00 0008 0000 00f3 0000
00000020: ea00 8100 003c 0000 0003 0000 0673 0000
00000030: df00 a100 00f8 0200 0003 0000 057f 0000
00000040: d600 be00 0013 fdc5 00f8 0000 9d81 0000
00000050: 0200 0500 00ff 7235 0000 0000 8108 0000
00000060: 0000 0200 0000 137f 00fe 0000 f302 0000
00000070: 0000 0000 0000 0000 0000 0000 0000 0000
00000080: 7e00 a600 00c9 d909 007f 0000 3ec6 0000
00000090: ff00 fa00 0001 ee7f 0001 0000 2bf9 0000
000000a0: 0000 0000 0000 0000 0000 0000 0000 0000
000000b0: 0100 fd00 00fe ba7f 0000 0000 43fe 0000
000000c0: 0d00 7f00 00f6 dffb 00fe 0000 fe43 0000
000000d0: 4a00 5400 0044 eaf9 00fc 0000 0c7f 0000
000000e0: d600 8f00 00ff 360d 00f4 0000 2981 0000
000000f0: 7f00 df00 004c 17f7 002a 0000 00b9 0000

model_1/conv_dw_3_bn/FusedBatchNormV3;model_1/conv_dw_3/depthwise;model_1/conv_pw_247/Conv2D i1 [1, 3, 3, 32]
-4 -7 -4 -19 11 -14 -21 70
-45 -22 4 -4 1 127 -16 -43
7 -38 0 8 -22 -13 -25 2
-11 -96 -7 -18 -44 -111 -12 8
7 -7 0 127 27 -13 -96 22
14 67 127 -19 -2 -121 42 127
127 7 107 -7 -36 6 20 -1
-127 -57 -27 35 -67 68 -49 0
0 10 -1 -47 -30 1 76 48
-72 13 106 22 8 -5 -12 -4
10 26 9 -8 17 -11 -1 -12
5 13 2 -11 64 15 40 2
-13 -15 -12 -13 -22 -48 -65 39
-92 30 35 -98 0 47 25 43
-10 -127 2 127 -78 9 -120 -15
28 127 127 -11 -53 127 5 56
119 -127 127 -36 127 127 -127 63
-127 -127 33 127 -116 -22 -127 -95
-117 31 127 11 127 127 127 127
80 60 -61 127 -127 -67 -127 127
-127 22 -12 11 -23 -33 35 -5
-18 -18 -49 -27 -3 -11 30 -6
-16 104 -4 -6 20 7 7 3
4 7 -18 -124 18 -16 13 24
1 1 0 0 -2 26 80 23
-54 -10 -70 -3 -4 -16 4 -5
3 -19 -11 0 -17 -24 -12 3
-8 -40 -19 -16 68 8 20 1
-19 -2 -4 -24 -48 -66 17 127
-63 64 12 -1 127 9 18 -1
-5 10 27 -7 53 -16 0 -10
22 -8 -7 22 33 -11 31 -4
00000000: fcf9 fced 0bf2 eb46 d3ea 04fc 017f f0d5
00000010: 07da 0008 eaf3 e702 f5a0 f9ee d491 f408
00000020: 07f9 007f 1bf3 a016 0e43 7fed fe87 2a7f
00000030: 7f07 6bf9 dc06 14ff 81c7 e523 bd44 cf00
00000040: 000a ffd1 e201 4c30 b80d 6a16 08fb f4fc
00000050: 0a1a 09f8 11f5 fff4 050d 02f5 400f 2802
00000060: f3f1 f4f3 ead0 bf27 a41e 239e 002f 192b
00000070: f681 027f b209 88f1 1c7f 7ff5 cb7f 0538
00000080: 7781 7fdc 7f7f 813f 8181 217f 8cea 81a1
00000090: 8b1f 7f0b 7f7f 7f7f 503c c37f 81bd 817f
000000a0: 8116 f40b e9df 23fb eeee cfe5 fdf5 1efa
000000b0: f068 fcfa 1407 0703 0407 ee84 12f0 0d18
000000c0: 0101 0000 fe1a 5017 caf6 bafd fcf0 04fb
000000d0: 03ed f500 efe8 f403 f8d8 edf0 4408 1401
000000e0: edfe fce8 d0be 117f c140 0cff 7f09 12ff
000000f0: fb0a 1bf9 35f0 00f6 16f8 f916 21f5 1ffc

model_1/conv_pw_3/Conv2D i1 [32, 1, 1, 32]
-44 1 -12 -64 24 -8 -12 0
5 3 0 1 17 3 -92 19
10 -44 -120 -24 -9 -25 22 11
-127 25 -102 12 3 116 29 -51
-53 95 -74 -23 15 -13 10 0
74 2 0 -5 64 -45 30 26
-61 -7 7 119 -6 -20 -50 -107
90 -5 -127 41 -12 37 8 -33
2 6 -50 -56 5 -14 3 0
68 13 0 -3 -14 -15 37 15
-12 -1 127 -6 3 3 12 7
93 2 30 2 13 15 -7 13
0 0 7 6 -33 5 -83 0
20 -4 0 -17 1 5 -43 4
0 6 5 -1 10 7 3 -1
8 3 9 1 127 6 -70 4
-49 -62 58 -57 7 8 -12 0
-69 -10 0 1 21 20 49 24
-23 9 -13 -18 -5 -12 -42 -18
-116 -14 127 1 11 28 14 106
23 -7 24 10 -127 -23 -12 0
-2 5 0 39 5 -2 100 -2
4 -23 5 -1 4 13 7 7
15 10 -4 -10 111 17 -75 29
124 61 -44 1 18 -30 -16 0
42 16 0 -2 -56 44 127 -33
2 -16 -17 48 -6 3 27 -71
47 14 0 -22 -6 -55 12 -21
42 -54 4 7 1 5 -6 0
42 22 0 -2 37 25 51 77
-61 -13 48 -61 -8 -20 -40 -93
127 4 27 -19 -12 23 -18 14
00000000: d401 f4c0 18f8 f400 0503 0001 1103 a413
00000010: 0ad4 88e8 f7e7 160b 8119 9a0c 0374 1dcd
00000020: cb5f b6e9 0ff3 0a00 4a02 00fb 40d3 1e1a
00000030: c3f9 0777 faec ce95 5afb 8129 f425 08df
00000040: 0206 cec8 05f2 0300 440d 00fd f2f1 250f
00000050: f4ff 7ffa 0303 0c07 5d02 1e02 0d0f f90d
00000060: 0000 0706 df05 ad00 14fc 00ef 0105 d504
00000070: 0006 05ff 0a07 03ff 0803 0901 7f06 ba04
00000080: cfc2 3ac7 0708 f400 bbf6 0001 1514 3118
00000090: e909 f3ee fbf4 d6ee 8cf2 7f01 0b1c 0e6a
000000a0: 17f9 180a 81e9 f400 fe05 0027 05fe 64fe
000000b0: 04e9 05ff 040d 0707 0f0a fcf6 6f11 b51d
000000c0: 7c3d d401 12e2 f000 2a10 00fe c82c 7fdf
000000d0: 02f0 ef30 fa03 1bb9 2f0e 00ea fac9 0ceb
000000e0: 2aca 0407 0105 fa00 2a16 00fe 2519 334d
000000f0: c3f3 30c3 f8ec d8a3 7f04 1bed f417 ee0e

model_1/conv_dw_4_bn/FusedBatchNormV3;model_1/conv_dw_4/depthwise;model_1/conv_pw_247/Conv2D i1 [1, 3, 3, 32]
58 56 -6 40 58 -27 85 70
-51 -74 -62 49 -42 -39 37 124
-60 77 -42 -46 -51 40 -45 -38
-69 -54 45 -69 66 27 71 53
88 94 -4 74 -90 84 -95 95
-85 -103 -87 86 -68 -97 74 127
-77 -75 -60 -67 -82 91 -76 -56
-94 -127 70 -94 -96 57 94 90
38 52 -6 48 28 -45 20 48
-35 -42 -27 49 -31 -57 41 29
-27 -2 -25 -17 -37 61 -38 -23
-35 -73 34 -41 28 37 37 45
98 85 -40 76 -76 -47 -71 82
-77 -85 -92 78 -87 -58 70 123
-98 127 -85 -31 -83 67 74 -94
-91 50 68 -88 -88 -68 93 83
127 127 -70 127 127 127 127 127
-127 -127 -127 127 -127 -127 127 82
-127 -111 -127 98 -127 127 127 -127
-127 85 127 -127 127 -127 127 127
69 69 -31 84 -45 -82 -33 66
-59 -53 -45 68 -55 -75 65 -30
-48 -8 -57 31 -60 83 48 -51
-59 50 63 -52 -49 -63 47 54
44 38 81 44 18 -25 5 27
-33 -22 -30 32 -55 -24 40 20
-38 55 -45 127 -39 31 -9 -61
-35 1 31 -28 19 22 36 37
75 62 127 75 -37 55 -12 56
-51 -34 -47 66 -73 -51 68 -34
-56 -58 -68 30 -60 54 -25 -86
-51 -4 64 -45 -37 51 49 51
00000000: 3a38 fa28 3ae5 5546 cdb6 c231 d6d9 257c
00000010: c44d d6d2 cd28 d3da bbca 2dbb 421b 4735
00000020: 585e fc4a a654 a15f ab99 a956 bc9f 4a7f
00000030: b3b5 c4bd ae5b b4c8 a281 46a2 a039 5e5a
00000040: 2634 fa30 1cd3 1430 ddd6 e531 e1c7 291d
00000050: e5fe e7ef db3d dae9 ddb7 22d7 1c25 252d
00000060: 6255 d84c b4d1 b952 b3ab a44e a9c6 467b
00000070: 9e7f abe1 ad43 4aa2 a532 44a8 a8bc 5d53
00000080: 7f7f ba7f 7f7f 7f7f 8181 817f 8181 7f52
00000090: 8191 8162 817f 7f81 8155 7f81 7f81 7f7f
000000a0: 4545 e154 d3ae df42 c5cb d344 c9b5 41e2
000000b0: d0f8 c71f c453 30cd c532 3fcc cfc1 2f36
000000c0: 2c26 512c 12e7 051b dfea e220 c9e8 2814
000000d0: da37 d37f d91f f7c3 dd01 1fe4 1316 2425
000000e0: 4b3e 7f4b db37 f438 cdde d142 b7cd 44de
000000f0: c8c6 bc1e c436 e7aa cdfc 40d3 db33 3133

model_1/conv_pw_4/Conv2D i1 [64, 1, 1, 32]
1 -53 2 -6 -30 -3 -28 127
-2 31 -1 -9 -28 -8 -1 -39
0 -2 5 0 -7 72 5 78
-61 -6 16 6 -34 -21 -3 -7
1 -11 -1 0 12 -8 18 -33
5 -37 -6 5 17 100 22 17
-127 -3 -127 0 -12 29 5 66
7 -2 -3 41 14 0 -96 4
8 1 22 5 5 2 0 3
8 -6 -5 7 25 -8 2 18
127 4 -55 0 31 -6 28 -10
-12 35 4 8 2 39 6 -1
-2 76 8 7 -5 -15 -2 -54
-8 -10 -5 6 12 2 5 8
-5 -11 -2 0 2 -127 8 12
79 -13 11 20 0 -18 0 2
-11 -11 -2 -127 -3 -11 -2 -8
-2 18 -51 107 5 3 -10 -3
-1 -4 0 0 3 13 -2 -2
1 -1 1 -9 -4 -1 -4 -24
11 -3 -9 -13 2 41 -1 -6
-4 26 1 -6 -5 4 -3 -18
-8 37 2 0 -5 9 -12 1
-12 -2 127 -5 2 1 -3 -45
-21 8 0 -88 -7 -3 -1 23
11 35 -127 -13 1 -12 -45 40
20 5 17 0 7 -25 0 76
-29 -30 -16 -15 -9 -35 -3 3
17 18 22 -13 9 -24 10 31
-25 -18 -5 -9 -5 5 43 -11
-106 -21 -99 0 -34 -24 37 -14
-7 34 -3 127 12 26 18 -36
00000000: 01cb 02fa e2fd e47f fe1f fff7 e4f8 ffd9
00000010: 00fe 0500 f948 054e c3fa 1006 deeb fdf9
00000020: 01f5 ff00 0cf8 12df 05db fa05 1164 1611
00000030: 81fd 8100 f41d 0542 07fe fd29 0e00 a004
00000040: 0801 1605 0502 0003 08fa fb07 19f8 0212
00000050: 7f04 c900 1ffa 1cf6 f423 0408 0227 06ff
00000060: fe4c 0807 fbf1 feca f8f6 fb06 0c02 0508
00000070: fbf5 fe00 0281 080c 4ff3 0b14 00ee 0002
00000080: f5f5 fe81 fdf5 fef8 fe12 cd6b 0503 f6fd
00000090: fffc 0000 030d fefe 01ff 01f7 fcff fce8
000000a0: 0bfd f7f3 0229 fffa fc1a 01fa fb04 fdee
000000b0: f825 0200 fb09 f401 f4fe 7ffb 0201 fdd3
000000c0: eb08 00a8 f9fd ff17 0b23 81f3 01f4 d328
000000d0: 1405 1100 07e7 004c e3e2 f0f1 f7dd fd03
000000e0: 1112 16f3 09e8 0a1f e7ee fbf7 fb05 2bf5
000000f0: 96eb 9d00 dee8 25f2 f922 fd7f 0c1a 12dc

model_1/conv_dw_255_bn/FusedBatchNormV3;model_1/conv_dw_255/depthwise;model_1/conv_pw_248/Conv2D i1 [1, 3, 3, 64]
6 11 -13 -53 29 48 13 50
44 -10 25 7 48 -127 -83 -9
29 58 -98 19 -20 -9 -8 -82
17 -63 -3 -4 15 -11 -17 24
19 34 25 -12 7 18 79 -11
16 84 16 127 -2 -16 -34 5
-22 -6 28 -81 -8 -10 -99 -5
30 -21 -112 -19 -11 -70 -43 -1
53 18 39 -3 -27 60 12 -81
76 6 -36 127 40 -103 -25 35
66 74 -68 23 -86 -31 -43 -9
-73 5 27 -47 -38 -74 -34 127
-20 41 35 91 -91 58 127 38
16 94 57 82 -20 7 67 57
-37 22 127 -80 13 -19 -74 -69
127 46 71 -16 -1 29 -127 -6
73 3 -27 11 -2 50 84 32
37 8 -2 73 -33 -88 -88 -15
9 -5 -127 64 -26 16 -20 84
13 -29 20 -21 1 2 -26 9
-3 -8 -80 -7 -46 0 44 30
-51 10 28 -40 3 41 9 127
-19 127 70 17 -5 -4 127 -19
-41 127 7 -3 3 94 78 40
-127 -25 99 -127 -10 103 4 28
68 28 -13 -6 91 -115 -127 41
-70 71 -22 -1 -81 -21 -13 127
-61 -127 49 -17 17 -57 -16 -20
101 18 -14 37 -52 4 -61 63
-36 127 43 50 41 -55 -74 -33
-61 -6 7 81 -9 -3 -124 63
-19 -6 -127 -16 -33 -84 60 127
00000000: 060b f3cb 1d30 0d32 2cf6 1907 3081 adf7
00000010: 1d3a 9e13 ecf7 f8ae 11c1 fdfc 0ff5 ef18
00000020: 1322 19f4 0712 4ff5 1054 107f fef0 de05
00000030: eafa 1caf f8f6 9dfb 1eeb 90ed f5ba d5ff
00000040: 3512 27fd e53c 0caf 4c06 dc7f 2899 e723
00000050: 424a bc17 aae1 d5f7 b705 1bd1 dab6 de7f
00000060: ec29 235b a53a 7f26 105e 3952 ec07 4339
00000070: db16 7fb0 0ded b6bb 7f2e 47f0 ff1d 81fa
00000080: 4903 e50b fe32 5420 2508 fe49 dfa8 a8f1
00000090: 09fb 8140 e610 ec54 0de3 14eb 0102 e609
000000a0: fdf8 b0f9 d200 2c1e cd0a 1cd8 0329 097f
000000b0: ed7f 4611 fbfc 7fed d77f 07fd 035e 4e28
000000c0: 81e7 6381 f667 041c 441c f3fa 5b8d 8129
000000d0: ba47 eaff afeb f37f c381 31ef 11c7 f0ec
000000e0: 6512 f225 cc04 c33f dc7f 2b32 29c9 b6df
000000f0: c3fa 0751 f7fd 843f edfa 81f0 dfac 3c7f

model_1/conv_pw_255/Conv2D i1 [64, 1, 1, 64]
41 29 -52 28 9 34 -34 -19
76 -127 -64 -47 3 -8 -46 3
-127 56 -9 -14 3 17 -61 27
8 -2 23 -50 6 27 -7 12
-4 -31 -44 -17 11 4 40 12
-24 4 -30 -24 3 -124 6 -56
-64 31 -15 -15 68 -3 -25 -71
18 -3 -14 -24 -65 11 -51 10
-40 14 -31 -6 -49 54 -17 26
24 -57 -75 -29 -20 11 -36 -20
-72 16 19 -80 -41 16 -75 2
2 -74 -15 -30 -127 -27 -18 31
1 -38 19 1 9 18 4 -83
-105 29 -68 -21 67 -108 7 -23
-15 -40 26 -65 12 -75 10 -51
-50 13 0 9 -119 88 -15 47
-69 19 30 46 -23 -41 2 -37
-22 10 77 -42 9 -44 -52 15
7 31 -48 33 127 -4 -18 13
-7 -23 -21 70 17 -9 1 -37
-28 -29 41 37 -37 -2 -25 65
32 -17 -12 45 54 12 -7 34
36 -26 36 -7 45 2 24 -1
-6 21 -73 -5 -13 -8 14 51
38 18 17 13 -17 -1 -38 -40
-13 -48 -57 127 37 56 -48 -12
-55 11 -65 -24 19 -57 -28 -44
-38 -25 6 -62 3 -31 29 -63
-40 -12 20 36 8 -11 -52 -23
21 1 -23 -18 27 -24 22 -58
-12 39 -99 -2 15 -6 -1 3
-14 14 1 -4 -20 8 -9 46
00000000: 291d cc1c 0922 deed 4c81 c0d1 03f8 d203
00000010: 8138 f7f2 0311 c31b 08fe 17ce 061b f90c
00000020: fce1 d4ef 0b04 280c e804 e2e8 0384 06c8
00000030: c01f f1f1 44fd e7b9 12fd f2e8 bf0b cd0a
00000040: d80e e1fa cf36 ef1a 18c7 b5e3 ec0b dcec
00000050: b810 13b0 d710 b502 02b6 f1e2 81e5 ee1f
00000060: 01da 1301 0912 04ad 971d bceb 4394 07e9
00000070: f1d8 1abf 0cb5 0acd ce0d 0009 8958 f12f
00000080: bb13 1e2e e9d7 02db ea0a 4dd6 09d4 cc0f
00000090: 071f d021 7ffc ee0d f9e9 eb46 11f7 01db
000000a0: e4e3 2925 dbfe e741 20ef f42d 360c f922
000000b0: 24e6 24f9 2d02 18ff fa15 b7fb f3f8 0e33
000000c0: 2612 110d efff dad8 f3d0 c77f 2538 d0f4
000000d0: c90b bfe8 13c7 e4d4 dae7 06c2 03e1 1dc1
000000e0: d8f4 1424 08f5 cce9 1501 e9ee 1be8 16c6
000000f0: f427 9dfe 0ffa ff03 f20e 01fc ec08 f72e

model_1/conv_dw_253_bn/FusedBatchNormV3;model_1/conv_dw_253/depthwise;model_1/conv_pw_248/Conv2D i1 [1, 3, 3, 64]
127 -35 127 -91 -79 -106 60 68
-22 127 18 127 28 -72 -92 -43
117 -125 77 127 -55 -127 16 -93
-44 -127 -65 -73 109 -30 63 -123
-118 59 35 37 -12 -73 -24 23
-71 -69 -47 110 -14 -127 127 17
-127 -29 74 -113 -80 -110 12 -30
-75 52 63 -54 47 101 36 83
59 -26 -34 -118 -52 -6 42 105
-25 45 38 61 9 13 -54 1
99 -9 29 48 -52 -10 81 -17
-127 -27 -71 -47 119 49 66 -45
-102 2 -26 94 45 18 15 -4
-36 25 -17 114 101 -103 59 -24
-57 -88 90 -127 -72 -47 7 -35
-70 67 -72 -17 47 56 80 100
126 -14 -39 -68 103 16 -54 72
80 27 -44 94 19 54 -20 -44
127 -30 89 -53 -23 33 -54 -46
-71 29 -127 -79 118 -64 77 -104
-74 52 -16 127 -27 -11 -5 79
-127 127 60 93 124 -72 90 4
-127 -76 41 -67 -120 -86 39 -46
-127 -127 -127 17 65 14 0 71
30 -84 101 -127 -17 -127 58 115
-12 -6 -45 94 77 -127 -19 28
84 127 81 -9 127 -42 23 -70
-16 -109 -58 -40 127 12 6 22
-122 90 73 -5 -82 -92 -5 119
-97 -16 -10 -24 -13 -96 63 63
-10 -90 55 -53 -54 12 67 -78
35 53 122 59 98 127 76 127
00000000: 7fdd 7fa5 b196 3c44 ea7f 127f 1cb8 a4d5
00000010: 7583 4d7f c981 10a3 d481 bfb7 6de2 3f85
00000020: 8a3b 2325 f4b7 e817 b9bb d16e f281 7f11
00000030: 81e3 4a8f b092 0ce2 b534 3fca 2f65 2453
00000040: 3be6 de8a ccfa 2a69 e72d 263d 090d ca01
00000050: 63f7 1d30 ccf6 51ef 81e5 b9d1 7731 42d3
00000060: 9a02 e65e 2d12 0ffc dc19 ef72 6599 3be8
00000070: c7a8 5a81 b8d1 07dd ba43 b8ef 2f38 5064
00000080: 7ef2 d9bc 6710 ca48 501b d45e 1336 ecd4
00000090: 7fe2 59cb e921 cad2 b91d 81b1 76c0 4d98
000000a0: b634 f07f e5f5 fb4f 817f 3c5d 7cb8 5a04
000000b0: 81b4 29bd 88aa 27d2 8181 8111 410e 0047
000000c0: 1eac 6581 ef81 3a73 f4fa d35e 4d81 ed1c
000000d0: 547f 51f7 7fd6 17ba f093 c6d8 7f0c 0616
000000e0: 865a 49fb aea4 fb77 9ff0 f6e8 f3a0 3f3f
000000f0: f6a6 37cb ca0c 43b2 2335 7a3b 627f 4c7f

model_1/conv_pw_253/Conv2D i1 [64, 1, 1, 64]
30 91 57 -11 10 -5 10 11
-11 28 -37 -12 6 -52 -21 22
32 -50 -31 -10 92 18 -46 12
-2 12 -32 -15 12 -17 73 -42
12 29 3 5 19 -39 -54 127
26 -23 -18 7 61 -7 8 100
-8 -13 -33 -17 -41 7 -114 -76
-29 -11 -24 -21 34 42 -2 -12
51 -4 -30 53 28 -98 -94 -87
-19 96 -23 5 -57 -4 127 -44
-105 15 -14 -4 16 -53 34 -23
79 -7 -30 -28 37 -67 -42 109
-9 7 66 -58 60 -96 2 -73
5 -12 -13 -118 -92 -105 -64 72
-22 -39 -58 61 3 37 40 16
63 -62 96 36 -37 47 -58 15
120 -37 33 -8 102 -67 68 2
-126 -9 27 -1 -7 15 19 68
-41 11 -65 -52 -37 36 108 -18
103 4 -1 -18 -23 -16 -66 68
20 -93 28 24 10 88 57 -28
-57 32 -57 30 127 -28 5 51
10 -31 -10 -28 56 -31 -1 2
20 -6 -16 -43 -19 -5 5 -42
0 -12 21 -11 -5 22 10 -55
27 41 -8 15 3 -20 11 -17
-56 33 -3 0 -45 5 -68 -18
-15 -1 -60 -23 -40 28 17 46
7 -42 10 1 9 34 13 72
-15 28 44 -100 10 -4 -62 -58
-127 -29 -38 12 20 40 -20 25
33 -29 24 25 -14 -6 -25 41
00000000: 1e5b 39f5 0afb 0a0b f51c dbf4 06cc eb16
00000010: 20ce e1f6 5c12 d20c fe0c e0f1 0cef 49d6
00000020: 0c1d 0305 13d9 ca7f 1ae9 ee07 3df9 0864
00000030: f8f3 dfef d707 8eb4 e3f5 e8eb 222a fef4
00000040: 33fc e235 1c9e a2a9 ed60 e905 c7fc 7fd4
00000050: 970f f2fc 10cb 22e9 4ff9 e2e4 25bd d66d
00000060: f707 42c6 3ca0 02b7 05f4 f38a a497 c048
00000070: ead9 c63d 0325 2810 3fc2 6024 db2f c60f
00000080: 78db 21f8 66bd 4402 82f7 1bff f90f 1344
00000090: d70b bfcc db24 6cee 6704 ffee e9f0 be44
000000a0: 14a3 1c18 0a58 39e4 c720 c71e 7fe4 0533
000000b0: 0ae1 f6e4 38e1 ff02 14fa f0d5 edfb 05d6
000000c0: 00f4 15f5 fb16 0ac9 1b29 f80f 03ec 0bef
000000d0: c821 fd00 d305 bcee f1ff c4e9 d81c 112e
000000e0: 07d6 0a01 0922 0d48 f11c 2c9c 0afc c2c6
000000f0: 81e3 da0c 1428 ec19 21e3 1819 f2fa e729

model_1/conv2d_7/Conv2D i1 [32, 1, 1, 64]
57 17 72 -5 22 16 -5 45
-68 -1 -30 -33 59 -21 -116 -4
-35 -25 27 13 65 19 -19 -81
60 59 17 114 -89 -73 33 -127
26 -28 13 25 26 -4 -35 -31
-3 47 5 38 -44 35 20 55
58 -10 -47 33 -4 -63 90 -39
0 7 60 51 35 -83 -28 -73
19 2 -7 12 -60 7 -8 41
-37 -1 -29 -6 -25 -69 29 53
34 11 9 12 10 40 -15 -8
42 -42 100 104 -62 -5 6 -64
33 -127 -4 -17 -83 7 -14 -86
29 18 -17 -17 -12 41 8 -3
-36 12 -3 9 -54 -95 -24 -19
14 30 22 -21 94 39 47 -114
-15 -77 21 14 8 17 4 31
-33 6 -34 -5 2 1 -65 -29
-49 24 18 -44 16 1 -12 -5
-32 68 0 32 17 85 16 -12
-16 45 20 12 -14 0 -80 26
-16 16 29 31 25 17 -23 6
89 -63 -48 -22 27 -30 3 -12
-85 50 -6 4 -24 -127 -7 15
3 -2 24 -20 67 -18 -8 -78
32 -21 -35 29 107 -16 55 13
127 -8 72 23 87 -52 4 -28
29 86 -62 118 22 -33 20 -10
-79 -58 96 -24 24 -1 -41 -113
-12 26 114 -43 33 95 11 27
64 51 -102 -62 -55 18 -14 -21
1 -14 -35 20 43 13 -10 -6
00000000: 3911 48fb 1610 fb2d bcff e2df 3beb 8cfc
00000010: dde7 1b0d 4113 edaf 3c3b 1172 a7b7 2181
00000020: 1ae4 0d19 1afc dde1 fd2f 0526 d423 1437
00000030: 3af6 d121 fcc1 5ad9 0007 3c33 23ad e4b7
00000040: 1302 f90c c407 f829 dbff e3fa e7bb 1d35
00000050: 220b 090c 0a28 f1f8 2ad6 6468 c2fb 06c0
00000060: 2181 fcef ad07 f2aa 1d12 efef f429 08fd
00000070: dc0c fd09 caa1 e8ed 0e1e 16eb 5e27 2f8e
00000080: f1b3 150e 0811 041f df06 defb 0201 bfe3
00000090: cf18 12d4 1001 f4fb e044 0020 1155 10f4
000000a0: f02d 140c f200 b01a f010 1d1f 1911 e906
000000b0: 59c1 d0ea 1be2 03f4 ab32 fa04 e881 f90f
000000c0: 03fe 18ec 43ee f8b2 20eb dd1d 6bf0 370d
000000d0: 7ff8 4817 57cc 04e4 1d56 c276 16df 14f6
000000e0: b1c6 60e8 18ff d78f f41a 72d5 215f 0b1b
000000f0: 4033 9ac2 c912 f2eb 01f2 dd14 2b0d f6fa

model_1/conv_dw_252_bn/FusedBatchNormV3;model_1/conv_dw_252/depthwise;model_1/conv_pw_248/Conv2D i1 [1, 3, 3, 64]
-35 -35 20 14 -127 -74 -1 4
-29 -71 -5 -127 -79 -34 25 4
-127 -30 127 2 -44 24 35 -92
-65 -5 15 -41 -36 0 -75 0
-119 -27 45 -82 40 97 -45 -29
-10 49 -79 127 -127 127 -127 25
-64 -50 -54 -34 46 47 88 42
-84 27 -47 24 -3 -10 106 76
-34 -68 24 127 -8 -127 -27 -4
-92 14 -24 -86 -65 8 -50 -6
-95 28 -20 -11 -27 127 93 -61
-8 -91 -86 20 76 -66 -74 -25
14 -34 -43 -17 -22 -78 -108 58
127 -87 -100 50 -13 38 -88 3
-4 -127 -6 -69 30 127 87 127
-127 127 -127 -21 -20 -18 66 60
-104 -49 -127 -31 -39 -50 127 -15
5 -88 16 -110 -127 -21 68 0
-71 -29 29 -6 47 -3 105 -69
0 64 53 6 -12 4 -58 -8
65 -127 -26 -73 36 76 -127 -94
6 -53 -52 125 51 -21 -5 33
-16 -35 -110 -37 44 17 127 67
-102 93 50 -1 82 3 84 82
-97 -73 -17 -1 -67 -106 1 -5
-122 -64 21 17 -50 -25 55 5
-99 -67 11 28 -92 5 98 -18
-65 -88 -121 -31 -76 127 -127 2
-127 -79 127 -120 48 109 -116 -76
-30 -97 -28 28 -112 -30 -107 -6
-33 -64 118 7 -24 3 117 32
61 -38 -119 -38 20 17 75 127
00000000: dddd 140e 81b6 ff04 e3b9 fb81 b1de 1904
00000010: 81e2 7f02 d418 23a4 bffb 0fd7 dc00 b500
00000020: 89e5 2dae 2861 d3e3 f631 b17f 817f 8119
00000030: c0ce cade 2e2f 582a ac1b d118 fdf6 6a4c
00000040: debc 187f f881 e5fc a40e e8aa bf08 cefa
00000050: a11c ecf5 e57f 5dc3 f8a5 aa14 4cbe b6e7
00000060: 0ede d5ef eab2 943a 7fa9 9c32 f326 a803
00000070: fc81 fabb 1e7f 577f 817f 81eb ecee 423c
00000080: 98cf 81e1 d9ce 7ff1 05a8 1092 81eb 4400
00000090: b9e3 1dfa 2ffd 69bb 0040 3506 f404 c6f8
000000a0: 4181 e6b7 244c 81a2 06cb cc7d 33eb fb21
000000b0: f0dd 92db 2c11 7f43 9a5d 32ff 5203 5452
000000c0: 9fb7 efff bd96 01fb 86c0 1511 cee7 3705
000000d0: 9dbd 0b1c a405 62ee bfa8 87e1 b47f 8102
000000e0: 81b1 7f88 306d 8cb4 e29f e41c 90e2 95fa
000000f0: dfc0 7607 e803 7520 3dda 89da 1411 4b7f

model_1/conv_pw_252/Conv2D i1 [64, 1, 1, 64]
34 -31 -31 -56 -26 4 13 -90
-22 10 0 -49 24 -7 -10 -127
5 -69 14 -41 6 -8 5 -35
-21 -55 -73 -40 33 15 -38 -65
-22 -25 43 4 -46 -19 -29 24
-19 -40 35 -75 34 47 19 -10
3 26 1 -11 10 -24 9 -76
-55 -21 5 -3 13 -15 -21 27
8 -57 -26 48 25 -20 -19 -7
-34 47 -10 5 66 -22 -23 124
-58 23 -44 -1 -18 -35 -19 -5
-17 -16 -38 89 15 34 -22 -1
-49 46 -40 127 -20 95 -15 -35
37 -6 -56 -67 5 19 67 9
-19 25 -35 -5 -61 15 -6 -13
-57 15 -17 26 4 55 31 17
23 -41 -114 22 -10 -3 -68 -127
-15 23 8 22 -23 -56 -42 24
-13 16 33 26 21 -77 57 39
-53 -8 -56 15 72 45 63 -47
-105 60 10 20 -17 -13 121 66
-49 12 52 -9 94 26 91 55
-81 27 -23 -35 38 13 -6 -30
-39 19 13 70 97 28 21 -9
-36 -18 -19 -45 -39 -78 -14 42
-32 -92 -37 19 -72 -114 -57 -40
9 6 0 -57 3 -1 -63 -35
-4 37 -90 32 -51 32 32 -38
24 -77 12 -63 -47 -59 3 7
-68 59 -12 26 -33 7 61 8
-18 49 -21 1 37 1 127 -16
-13 25 16 15 -78 -87 -9 -28
00000000: 22e1 e1c8 e604 0da6 ea0a 00cf 18f9 f681
00000010: 05bb 0ed7 06f8 05dd ebc9 b7d8 210f dabf
00000020: eae7 2b04 d2ed e318 edd8 23b5 222f 13f6
00000030: 031a 01f5 0ae8 09b4 c9eb 05fd 0df1 eb1b
00000040: 08c7 e630 19ec edf9 de2f f605 42ea e97c
00000050: c617 d4ff eedd edfb eff0 da59 0f22 eaff
00000060: cf2e d87f ec5f f1dd 25fa c8bd 0513 4309
00000070: ed19 ddfb c30f faf3 c70f ef1a 0437 1f11
00000080: 17d7 8e16 f6fd bc81 f117 0816 e9c8 d618
00000090: f310 211a 15b3 3927 cbf8 c80f 482d 3fd1
000000a0: 973c 0a14 eff3 7942 cf0c 34f7 5e1a 5b37
000000b0: af1b e9dd 260d fae2 d913 0d46 611c 15f7
000000c0: dcee edd3 d9b2 f22a e0a4 db13 b88e c7d8
000000d0: 0906 00c7 03ff c1dd fc25 a620 cd20 20da
000000e0: 18b3 0cc1 d1c5 0307 bc3b f41a df07 3d08
000000f0: ee31 eb01 2501 7ff0 f319 100f b2a9 f7e4

model_1/conv2d/Conv2D i1 [64, 1, 1, 64]
23 -69 89 -41 10 -3 -69 -33
-53 46 67 -23 -3 -20 47 19
24 -28 66 -52 60 27 28 -13
-57 -12 -59 -23 49 -127 63 105
-9 70 23 -23 -25 87 -54 77
-52 84 -18 -10 -54 21 45 -67
104 41 21 78 65 -62 -25 53
12 38 12 -37 -5 -46 -13 21
49 3 -40 25 -62 22 -17 63
51 -59 103 -10 43 -95 -55 -12
127 -17 -6 -19 -12 18 41 54
4 -29 -14 -93 -30 -33 26 25
-30 -73 -11 70 -40 -1 -13 17
55 13 -27 42 74 11 -36 -23
-16 -66 11 5 6 -27 36 -28
-35 99 78 44 29 -47 -116 -15
17 59 7 77 5 32 37 30
28 0 0 -5 127 -7 -61 11
30 102 -45 -53 33 -48 -28 -31
-21 33 -20 8 -101 -20 4 -32
2 -25 -51 -16 53 -69 82 -47
57 -22 -67 34 -5 66 -17 -10
5 54 28 -6 69 15 9 -26
-15 -23 8 3 -53 -41 48 -6
22 87 4 -16 24 27 -15 -43
1 24 29 -36 88 14 -37 22
-45 -24 -81 -4 -65 4 -12 -5
27 4 127 34 35 26 18 8
-9 5 -13 24 1 6 10 -36
4 9 -45 0 15 30 -69 -10
14 -58 30 31 -49 19 -5 -66
-15 32 -20 23 20 -5 29 18
00000000: 17bb 59d7 0afd bbdf cb2e 43e9 fdec 2f13
00000010: 18e4 42cc 3c1b 1cf3 c7f4 c5e9 3181 3f69
00000020: f746 17e9 e757 ca4d cc54 eef6 ca15 2dbd
00000030: 6829 154e 41c2 e735 0c26 0cdb fbd2 f315
00000040: 3103 d819 c216 ef3f 33c5 67f6 2ba1 c9f4
00000050: 7fef faed f412 2936 04e3 f2a3 e2df 1a19
00000060: e2b7 f546 d8ff f311 370d e52a 4a0b dce9
00000070: f0be 0b05 06e5 24e4 dd63 4e2c 1dd1 8cf1
00000080: 113b 074d 0520 251e 1c00 00fb 7ff9 c30b
00000090: 1e66 d3cb 21d0 e4e1 eb21 ec08 9bec 04e0
000000a0: 02e7 cdf0 35bb 52d1 39ea bd22 fb42 eff6
000000b0: 0536 1cfa 450f 09e6 f1e9 0803 cbd7 30fa
000000c0: 1657 04f0 181b f1d5 0118 1ddc 580e db16
000000d0: d3e8 affc bf04 f4fb 1b04 7f22 231a 1208
000000e0: f705 f318 0106 0adc 0409 d300 0f1e bbf6
000000f0: 0ec6 1e1f cf13 fbbe f120 ec17 14fb 1d12

model_1/conv_dw_251_bn/FusedBatchNormV3;model_1/conv_dw_251/depthwise;model_1/conv_pw_248/Conv2D i1 [1, 3, 3, 64]
-36 14 -28 -8 -115 -4 -57 9
3 4 -67 -1 -67 39 -24 -23
-21 44 127 -8 -21 -5 -36 127
-14 -9 15 36 4 -127 -38 10
-57 32 -112 35 -26 3 -98 -23
-24 -78 5 -18 27 65 10 -24
25 15 76 14 -37 1 -25 9
57 -7 40 3 12 -37 11 10
16 61 -73 3 -22 -84 60 23
-28 5 76 15 -6 -127 25 6
37 2 107 -1 28 76 47 13
-10 -57 15 42 -98 27 79 -20
127 108 -127 -11 127 -12 44 29
127 -46 2 33 -11 -43 47 18
-6 9 31 -9 41 7 6 -115
-42 -2 -7 -127 16 -43 -48 127
47 -8 -36 -109 -127 9 -4 -26
9 14 -117 -9 50 8 3 22
-21 127 69 -8 1 -73 8 50
-38 106 -55 84 18 77 17 -3
38 66 -93 -8 108 7 85 -7
24 -15 -10 13 -16 1 -31 7
12 -32 -67 -5 -73 -18 -11 62
-14 -19 3 7 9 -15 15 -18
95 53 94 64 -87 9 127 30
-9 -16 -108 127 -123 -53 -10 -76
-30 -60 -50 20 10 -57 31 11
25 -44 58 55 -14 58 -76 22
23 65 99 52 -30 -2 47 -119
78 -63 8 -27 23 127 -3 1
-26 -127 -55 127 29 108 -27 61
127 -52 -17 -7 -7 -127 21 16
00000000: dc0e e4f8 8dfc c709 0304 bdff bd27 e8e9
00000010: eb2c 7ff8 ebfb dc7f f2f7 0f24 0481 da0a
00000020: c720 9023 e603 9ee9 e8b2 05ee 1b41 0ae8
00000030: 190f 4c0e db01 e709 39f9 2803 0cdb 0b0a
00000040: 103d b703 eaac 3c17 e405 4c0f fa81 1906
00000050: 2502 6bff 1c4c 2f0d f6c7 0f2a 9e1b 4fec
00000060: 7f6c 81f5 7ff4 2c1d 7fd2 0221 f5d5 2f12
00000070: fa09 1ff7 2907 068d d6fe f981 10d5 d07f
00000080: 2ff8 dc93 8109 fce6 090e 8bf7 3208 0316
00000090: eb7f 45f8 01b7 0832 da6a c954 124d 11fd
000000a0: 2642 a3f8 6c07 55f9 18f1 f60d f001 e107
000000b0: 0ce0 bdfb b7ee f53e f2ed 0307 09f1 0fee
000000c0: 5f35 5e40 a909 7f1e f7f0 947f 85cb f6b4
000000d0: e2c4 ce14 0ac7 1f0b 19d4 3a37 f23a b416
000000e0: 1741 6334 e2fe 2f89 4ec1 08e5 177f fd01
000000f0: e681 c97f 1d6c e53d 7fcc eff9 f981 1510

model_1/conv_pw_251/Conv2D i1 [64, 1, 1, 64]
68 -17 69 78 -39 -44 43 14
52 -29 20 -127 6 54 11 39
12 -20 30 29 -27 39 -101 -62
18 -64 33 -44 8 12 19 -38
-78 85 14 -30 -32 -62 -10 -18
34 0 104 -17 2 -53 -1 -47
93 -32 -47 -64 30 59 -8 -11
84 48 -14 5 -22 -45 0 30
49 -34 24 9 31 67 22 32
1 50 23 114 19 -62 -25 -95
-31 55 -60 -88 22 -26 17 -33
-35 40 -111 -65 127 12 -17 32
-42 -40 -65 -29 -16 -82 -63 7
29 -11 21 27 5 10 -4 -45
57 71 52 -125 -24 -50 -14 30
11 -115 12 -18 -21 -44 -15 1
7 -127 -13 48 -16 86 52 -9
-16 -28 0 -7 70 20 -33 -19
25 -39 -50 23 -48 -48 -21 -41
-31 5 -48 -36 -14 24 29 26
19 43 -16 18 -23 65 77 8
-55 -6 82 30 -15 6 12 26
-2 3 14 76 -29 6 113 -87
-2 10 47 28 -11 31 29 -17
-35 -36 39 -31 6 9 -64 49
-22 -31 -72 -42 12 14 -6 4
-50 -29 29 9 35 1 -19 93
21 -32 0 -13 8 -18 -67 -31
-6 -98 43 -3 29 -46 29 -127
16 -3 -4 -2 -66 29 -3 -30
9 57 -82 -52 -21 -16 -29 -41
39 -32 40 16 38 -37 11 -5
00000000: 44ef 454e d9d4 2b0e 34e3 1481 0636 0b27
00000010: 0cec 1e1d e527 9bc2 12c0 21d4 080c 13da
00000020: b255 0ee2 e0c2 f6ee 2200 68ef 02cb ffd1
00000030: 5de0 d1c0 1e3b f8f5 5430 f205 ead3 001e
00000040: 31de 1809 1f43 1620 0132 1772 13c2 e7a1
00000050: e137 c4a8 16e6 11df dd28 91bf 7f0c ef20
00000060: d6d8 bfe3 f0ae c107 1df5 151b 050a fcd3
00000070: 3947 3483 e8ce f21e 0b8d 0cee ebd4 f101
00000080: 0781 f330 f056 34f7 f0e4 00f9 4614 dfed
00000090: 19d9 ce17 d0d0 ebd7 e105 d0dc f218 1d1a
000000a0: 132b f012 e941 4d08 c9fa 521e f106 0c1a
000000b0: fe03 0e4c e306 71a9 fe0a 2f1c f51f 1def
000000c0: dddc 27e1 0609 c031 eae1 b8d6 0c0e fa04
000000d0: cee3 1d09 2301 ed5d 15e0 00f3 08ee bde1
000000e0: fa9e 2bfd 1dd2 1d81 10fd fcfe be1d fde2
000000f0: 0939 aecc ebf0 e3d7 27e0 2810 26db 0bfb

model_1/conv_dw_250_bn/FusedBatchNormV3;model_1/conv_dw_250/depthwise;model_1/conv_pw_248/Conv2D i1 [1, 3, 3, 64]
50 -67 -58 -86 -32 -26 15 78
17 -96 61 85 13 51 -62 59
-10 -2 -22 40 -68 -95 -14 -127
60 -9 -91 -60 25 -9 -73 15
-41 4 83 27 71 25 -48 43
41 -51 0 42 21 -19 41 14
-19 3 -127 -8 -26 70 15 -1
31 12 21 -25 -33 109 -72 -95
-36 -98 0 127 105 52 60 -37
36 53 85 127 -17 127 6 -37
-47 -36 -85 -21 61 55 -5 41
127 -3 -77 -88 -44 119 -127 -11
47 11 127 -14 -127 127 29 127
71 -6 -8 8 -127 53 -59 38
15 -22 -124 -24 -32 66 -16 23
5 127 -37 -88 -127 124 -85 -1
53 71 24 107 127 37 52 -9
-27 27 127 34 65 11 71 -24
-13 -87 60 -23 10 8 -29 42
63 55 47 -58 -30 60 -60 -33
-8 3 7 -36 11 41 2 99
-77 42 28 -12 63 -51 21 13
7 28 -92 -10 -30 50 8 -2
4 59 19 -23 -26 1 127 112
84 20 68 -67 32 22 -27 125
-7 -9 32 -24 99 26 -10 23
94 -9 -101 11 -15 -127 -81 -123
-77 8 32 -111 -111 -127 29 12
46 3 -74 9 -44 55 74 4
104 -47 23 127 -39 -25 -56 18
-89 -1 99 2 21 -123 -20 40
127 96 -1 -5 75 5 16 -50
00000000: 32bd c6aa e0e6 0f4e 11a0 3d55 0d33 c23b
00000010: f6fe ea28 bca1 f281 3cf7 a5c4 19f7 b70f
00000020: d704 531b 4719 d02b 29cd 002a 15ed 290e
00000030: ed03 81f8 e646 0fff 1f0c 15e7 df6d b8a1
00000040: dc9e 007f 6934 3cdb 2435 557f ef7f 06db
00000050: d1dc abeb 3d37 fb29 7ffd b3a8 d477 81f5
00000060: 2f0b 7ff2 817f 1d7f 47fa f808 8135 c526
00000070: 0fea 84e8 e042 f017 057f dba8 817c abff
00000080: 3547 186b 7f25 34f7 e51b 7f22 410b 47e8
00000090: f3a9 3ce9 0a08 e32a 3f37 2fc6 e23c c4df
000000a0: f803 07dc 0b29 0263 b32a 1cf4 3fcd 150d
000000b0: 071c a4f6 e232 08fe 043b 13e9 e601 7f70
000000c0: 5414 44bd 2016 e57d f9f7 20e8 631a f617
000000d0: 5ef7 9b0b f181 af85 b308 2091 9181 1d0c
000000e0: 2e03 b609 d437 4a04 68d1 177f d9e7 c812
000000f0: a7ff 6302 1585 ec28 7f60 fffb 4b05 10ce

model_1/conv_pw_250/Conv2D i1 [64, 1, 1, 64]
61 0 0 -10 28 -46 106 12
44 -6 -1 -127 -71 -20 -37 -42
-4 3 -17 -36 -17 4 -10 -13
-27 -72 -9 47 -39 -58 -12 16
84 66 26 -7 -35 19 -9 39
9 -38 54 34 -14 -38 34 28
-14 75 -1 66 69 43 -83 -30
43 -59 -9 24 27 32 2 25
96 -7 14 -13 -25 80 97 -40
-44 -39 -6 -111 35 -113 85 -29
7 56 25 -7 -61 89 16 24
-35 -75 24 40 -52 -31 104 15
38 6 -70 57 -121 -23 53 -13
26 -35 47 -13 -2 12 15 -38
10 -52 27 79 12 9 -41 -38
-69 -31 -18 14 21 127 -29 -12
51 19 -20 -17 55 -19 2 9
-21 85 4 -94 4 5 -13 -127
38 31 -62 -74 -42 -47 -38 -3
-40 -19 -48 -92 5 36 -28 28
-90 0 39 -35 16 48 6 -57
-48 -115 -97 -21 61 1 96 82
-24 -23 -32 64 -2 67 -43 -49
-23 36 55 61 -36 21 -16 -18
127 -31 25 20 50 -2 -17 -46
82 39 16 -17 -30 7 -45 6
-16 9 43 -64 85 60 -88 -58
104 51 -7 79 64 42 -15 6
-113 75 8 -8 63 90 -107 -27
5 104 -84 52 -20 -14 -46 -38
-29 -46 37 -44 4 -24 -21 76
10 18 4 92 79 -56 -42 1
00000000: 3d00 00f6 1cd2 6a0c 2cfa ff81 b9ec dbd6
00000010: fc03 efdc ef04 f6f3 e5b8 f72f d9c6 f410
00000020: 5442 1af9 dd13 f727 09da 3622 f2da 221c
00000030: f24b ff42 452b ade2 2bc5 f718 1b20 0219
00000040: 60f9 0ef3 e750 61d8 d4d9 fa91 238f 55e3
00000050: 0738 19f9 c359 1018 ddb5 1828 cce1 680f
00000060: 2606 ba39 87e9 35f3 1add 2ff3 fe0c 0fda
00000070: 0acc 1b4f 0c09 d7da bbe1 ee0e 157f e3f4
00000080: 3313 ecef 37ed 0209 eb55 04a2 0405 f381
00000090: 261f c2b6 d6d1 dafd d8ed d0a4 0524 e41c
000000a0: a600 27dd 1030 06c7 d08d 9feb 3d01 6052
000000b0: e8e9 e040 fe43 d5cf e924 373d dc15 f0ee
000000c0: 7fe1 1914 32fe efd2 5227 10ef e207 d306
000000d0: f009 2bc0 553c a8c6 6833 f94f 402a f106
000000e0: 8f4b 08f8 3f5a 95e5 0568 ac34 ecf2 d2da
000000f0: e3d2 25d4 04e8 eb4c 0a12 045c 4fc8 d601

model_1/conv2d_1/Conv2D i1 [192, 1, 1, 64]
-16 -3 80 -14 62 -10 63 -12
-18 46 -32 32 6 15 86 69
81 -18 13 127 -10 56 25 -25
73 -33 1 73 51 -73 -38 10
-25 74 2 71 -15 80 -17 20
26 77 23 30 -23 -13 94 3
26 -21 28 56 98 -7 -35 -32
-30 56 2 64 -5 81 102 -19
18 -44 -32 -21 -107 -16 10 -52
41 15 -21 26 -3 10 -27 -20
-78 5 -89 -7 29 -16 -43 -55
-77 -127 -66 -68 34 -18 36 -48
56 -22 -35 72 10 -57 -108 36
-25 70 2 53 28 -73 20 -23
-44 22 -64 5 -14 23 -19 -20
31 1 -15 -66 -24 -38 -35 11
3 -2 53 20 -54 9 -35 -23
21 -45 -23 8 -50 28 64 37
14 -9 -41 33 40 48 39 83
52 13 -12 28 -32 7 127 34
-49 -27 -25 -17 24 24 -27 54
-55 23 46 -29 -61 -32 0 -46
-12 12 1 -70 -39 0 -13 20
-48 36 12 6 -16 -3 20 32
-68 -127 -61 65 24 16 68 28
39 32 21 6 17 15 96 29
-13 -24 37 -26 -29 45 64 1
0 52 52 -14 23 16 -18 -14
24 22 -44 39 -6 61 70 14
16 79 98 0 20 70 25 46
11 73 61 69 -44 5 -37 56
40 26 3 -33 -36 -91 21 11
00000000: f0fd 50f2 3ef6 3ff4 ee2e e020 060f 5645
00000010: 51ee 0d7f f638 19e7 49df 0149 33b7 da0a
00000020: e74a 0247 f150 ef14 1a4d 171e e9f3 5e03
00000030: 1aeb 1c38 62f9 dde0 e238 0240 fb51 66ed
00000040: 12d4 e0eb 95f0 0acc 290f eb1a fd0a e5ec
00000050: b205 a7f9 1df0 d5c9 b381 bebc 22ee 24d0
00000060: 38ea dd48 0ac7 9424 e746 0235 1cb7 14e9
00000070: d416 c005 f217 edec 1f01 f1be e8da dd0b
00000080: 03fe 3514 ca09 dde9 15d3 e908 ce1c 4025
00000090: 0ef7 d721 2830 2753 340d f41c e007 7f22
000000a0: cfe5 e7ef 1818 e536 c917 2ee3 c3e0 00d2
000000b0: f40c 01ba d900 f314 d024 0c06 f0fd 1420
000000c0: bc81 c341 1810 441c 2720 1506 110f 601d
000000d0: f3e8 25e6 e32d 4001 0034 34f2 1710 eef2
000000e0: 1816 d427 fa3d 460e 104f 6200 1446 192e
000000f0: 0b49 3d45 d405 db38 281a 03df dca5 150b

model_1/conv2d_3/Conv2D i1 [64, 1, 1, 64]
9 -20 -15 -20 27 22 -31 -53
-24 84 -23 24 -44 6 -42 14
37 127 24 -18 -91 4 -24 -21
-6 47 41 34 3 69 19 -14
93 -80 -13 -50 -72 -42 -5 -15
-55 -33 64 43 16 34 26 12
22 -3 47 -59 -13 -28 -18 -28
7 -51 5 -17 -5 17 -20 -3
-32 57 -37 14 25 42 61 -32
8 26 21 54 34 -49 6 -38
5 36 -2 45 10 12 19 -10
-16 -38 -71 17 -5 -39 -27 127
-8 3 14 -89 -34 -15 -49 -15
-53 52 62 -59 -20 -8 26 1
53 7 -39 -17 72 -30 11 52
44 -11 24 2 4 23 -31 -17
-46 -3 -127 -46 -29 16 -11 -25
9 50 -15 7 -66 -50 8 -1
7 74 44 -18 17 -20 -1 -33
-24 -26 -60 5 -14 9 -105 34
31 0 -52 -17 -36 20 -13 -17
5 22 5 -4 -22 43 -50 -81
18 4 -3 12 59 -47 -20 35
2 -50 37 35 -20 13 17 -36
25 25 -53 8 53 121 20 75
31 6 127 -30 -3 -7 -72 -56
22 -34 32 26 29 18 42 -46
-38 -6 11 0 72 30 28 24
-7 27 4 -93 10 -12 30 1
4 21 -56 -31 -22 -6 -16 -12
-25 99 33 -32 19 6 111 5
46 -12 57 38 -53 18 -53 17
00000000: 09ec f1ec 1b16 e1cb e854 e918 d406 d60e
00000010: 257f 18ee a504 e8eb fa2f 2922 0345 13f2
00000020: 5db0 f3ce b8d6 fbf1 c9df 402b 1022 1a0c
00000030: 16fd 2fc5 f3e4 eee4 07cd 05ef fb11 ecfd
00000040: e039 db0e 192a 3de0 081a 1536 22cf 06da
00000050: 0524 fe2d 0a0c 13f6 f0da b911 fbd9 e57f
00000060: f803 0ea7 def1 cff1 cb34 3ec5 ecf8 1a01
00000070: 3507 d9ef 48e2 0b34 2cf5 1802 0417 e1ef
00000080: d2fd 81d2 e310 f5e7 0932 f107 bece 08ff
00000090: 074a 2cee 11ec ffdf e8e6 c405 f209 9722
000000a0: 1f00 ccef dc14 f3ef 0516 05fc ea2b ceaf
000000b0: 1204 fd0c 3bd1 ec23 02ce 2523 ec0d 11dc
000000c0: 1919 cb08 3579 144b 1f06 7fe2 fdf9 b8c8
000000d0: 16de 201a 1d12 2ad2 dafa 0b00 481e 1c18
000000e0: f91b 04a3 0af4 1e01 0415 c8e1 eafa f0f4
000000f0: e763 21e0 1306 6f05 2ef4 3926 cb12 cb11

model_1/conv_dw_249_bn/FusedBatchNormV3;model_1/conv_dw_249/depthwise;model_1/conv_pw_248/Conv2D i1 [1, 3, 3, 64]
68 -23 -103 -95 -4 64 -26 92
73 -5 -41 -22 -67 23 52 -5
69 -21 40 89 -31 74 -56 -111
24 -45 83 43 10 5 -12 27
17 114 0 -45 59 -127 102 18
34 -41 -122 7 -27 -30 -5 -31
-127 -40 7 -56 127 -36 -9 88
90 18 -10 7 67 -14 -31 -16
44 -114 -127 65 127 -17 -58 -26
21 1 -11 -56 -13 -127 -127 -14
95 -8 47 39 22 -27 -82 -111
-34 -17 40 54 117 -31 -127 127
-8 -127 17 -127 -22 -53 14 -50
17 46 -46 -19 2 26 -46 50
-121 -42 -25 112 79 -51 -127 127
98 -23 61 -68 127 1 -25 108
127 -127 96 -103 26 -18 -22 -53
7 52 -42 100 17 112 85 7
48 -100 6 49 -56 8 -127 5
-19 30 -31 -120 -5 -16 -17 39
-29 14 21 -15 -28 47 127 16
-11 -26 -55 -6 -26 -27 -78 -127
-118 -1 18 -127 127 26 46 -66
127 -37 15 17 73 6 40 25
-14 -51 54 -127 -29 8 -78 127
127 -75 15 -27 -127 74 87 14
-74 89 -127 127 -36 127 -12 92
90 -50 -20 -55 -5 0 -57 -23
66 49 -15 -32 127 -92 -5 103
59 -13 -127 9 -42 27 -31 68
-40 -80 -18 -115 76 17 -51 -25
34 -29 -3 63 50 -22 -62 -41
00000000: 44e9 99a1 fc40 e65c 49fb d7ea bd17 34fb
00000010: 45eb 2859 e14a c891 18d3 532b 0a05 f41b
00000020: 1172 00d3 3b81 6612 22d7 8607 e5e2 fbe1
00000030: 81d8 07c8 7fdc f758 5a12 f607 43f2 e1f0
00000040: 2c8e 8141 7fef c6e6 1501 f5c8 f381 81f2
00000050: 5ff8 2f27 16e5 ae91 deef 2836 75e1 817f
00000060: f881 1181 eacb 0ece 112e d2ed 021a d232
00000070: 87d6 e770 4fcd 817f 62e9 3dbc 7f01 e76c
00000080: 7f81 6099 1aee eacb 0734 d664 1170 5507
00000090: 309c 0631 c808 8105 ed1e e188 fbf0 ef27
000000a0: e30e 15f1 e42f 7f10 f5e6 c9fa e6e5 b281
000000b0: 8aff 1281 7f1a 2ebe 7fdb 0f11 4906 2819
000000c0: f2cd 3681 e308 b27f 7fb5 0fe5 814a 570e
000000d0: b659 817f dc7f f45c 5ace ecc9 fb00 c7e9
000000e0: 4231 f1e0 7fa4 fb67 3bf3 8109 d61b e144
000000f0: d8b0 ee8d 4c11 cde7 22e3 fd3f 32ea c2d7

model_1/conv_pw_249/Conv2D i1 [64, 1, 1, 64]
-13 6 -12 -61 26 -9 -3 21
-27 -8 -18 68 3 6 8 -16
-38 99 21 13 10 70 108 43
-15 -10 42 32 32 53 0 3
-24 -23 -48 -30 -27 -30 40 61
15 -12 -10 -67 4 -8 5 50
-86 -32 -52 -22 -77 1 -12 11
-70 15 -38 33 -24 46 4 -127
-36 -55 -19 -4 -10 -7 15 0
69 -26 109 19 19 -29 3 -7
22 -27 37 33 -63 -35 -56 -34
43 -7 28 -16 2 25 -14 -59
-16 53 -37 -19 127 87 25 79
47 -22 66 4 -20 0 46 -47
0 49 18 41 39 41 -35 -32
-46 10 -31 24 36 -69 -10 32
-126 6 -38 -63 48 52 -9 71
43 12 -35 -38 2 -65 -6 53
-36 3 -29 27 -13 -127 -53 35
-8 72 31 73 30 101 64 -2
58 48 37 18 0 -29 -38 -62
78 4 90 59 -22 -57 28 41
-22 11 8 4 -38 -10 51 61
-5 29 -37 -63 24 -10 -9 24
-28 56 10 -127 -19 40 0 -6
-105 12 23 1 -54 -18 -36 -13
11 -101 4 -90 -59 -78 -25 -1
-28 26 23 -106 53 -51 18 -39
-50 107 8 -35 -35 -21 -4 -53
2 39 61 11 -84 12 47 -94
27 9 -20 -68 45 -44 -26 -9
-60 29 -59 -42 25 -82 16 6
00000000: f306 f4c3 1af7 fd15 e5f8 ee44 0306 08f0
00000010: da63 150d 0a46 6c2b f1f6 2a20 2035 0003
00000020: e8e9 d0e2 e5e2 283d 0ff4 f6bd 04f8 0532
00000030: aae0 ccea b301 f40b ba0f da21 e82e 0481
00000040: dcc9 edfc f6f9 0f00 45e6 6d13 13e3 03f9
00000050: 16e5 2521 c1dd c8de 2bf9 1cf0 0219 f2c5
00000060: f035 dbed 7f57 194f 2fea 4204 ec00 2ed1
00000070: 0031 1229 2729 dde0 d20a e118 24bb f620
00000080: 8206 dac1 3034 f747 2b0c ddda 02bf fa35
00000090: dc03 e31b f381 cb23 f848 1f49 1e65 40fe
000000a0: 3a30 2512 00e3 dac2 4e04 5a3b eac7 1c29
000000b0: ea0b 0804 daf6 333d fb1d dbc1 18f6 f718
000000c0: e438 0a81 ed28 00fa 970c 1701 caee dcf3
000000d0: 0b9b 04a6 c5b2 e7ff e41a 1796 35cd 12d9
000000e0: ce6b 08dd ddeb fccb 0227 3d0b ac0c 2fa2
000000f0: 1b09 ecbc 2dd4 e6f7 c41d c5d6 19ae 1006

model_1/conv_dw_248_bn/FusedBatchNormV3;model_1/conv_dw_248/depthwise;model_1/conv_pw_248/Conv2D i1 [1, 3, 3, 64]
66 18 -14 -93 123 22 52 -54
-20 -113 41 127 127 -127 22 -15
81 0 -26 -22 26 13 -46 2
-33 56 0 12 -2 -8 2 17
40 92 97 -62 9 -11 -21 30
-4 -59 -81 40 -36 38 -2 -78
-117 -6 -43 68 85 -119 -14 55
-127 -124 86 -40 -7 40 0 42
127 -18 -91 113 127 58 127 -49
21 -2 127 -30 0 -44 -103 0
-57 88 57 -48 44 8 3 7
53 127 -57 111 78 58 -29 -1
-19 24 36 -127 70 20 -32 105
-48 49 69 -74 8 -21 -2 -51
-18 -60 127 -28 57 113 33 127
-87 122 -26 -89 -26 3 42 71
57 2 2 -127 13 42 98 -78
-3 -56 54 0 55 -89 63 -34
20 19 -8 -26 57 -27 78 -4
13 -26 -22 22 -120 -38 -44 6
-49 127 -45 -58 19 54 -41 1
-48 52 -57 -13 -110 45 -11 -24
-75 -5 77 10 127 -66 119 -5
-69 -127 -10 -32 -3 14 -13 40
-9 127 45 -61 -16 -41 -24 -126
-25 -44 -10 16 117 -100 -56 -22
103 -23 -27 63 67 -5 -56 3
-68 84 39 -5 -21 -68 -91 23
127 68 127 -35 -4 -26 61 50
-26 -66 -99 89 -74 67 -33 37
-5 28 -29 127 -30 -86 -18 6
35 -107 127 49 -12 -6 0 127
00000000: 4212 f2a3 7b16 34ca ec8f 297f 7f81 16f1
00000010: 5100 e6ea 1a0d d202 df38 000c fef8 0211
00000020: 285c 61c2 09f5 eb1e fcc5 af28 dc26 feb2
00000030: 8bfa d544 5589 f237 8184 56d8 f928 002a
00000040: 7fee a571 7f3a 7fcf 15fe 7fe2 00d4 9900
00000050: c758 39d0 2c08 0307 357f c76f 4e3a e3ff
00000060: ed18 2481 4614 e069 d031 45b6 08eb fecd
00000070: eec4 7fe4 3971 217f a97a e6a7 e603 2a47
00000080: 3902 0281 0d2a 62b2 fdc8 3600 37a7 3fde
00000090: 1413 f8e6 39e5 4efc 0de6 ea16 88da d406
000000a0: cf7f d3c6 1336 d701 d034 c7f3 922d f5e8
000000b0: b5fb 4d0a 7fbe 77fb bb81 f6e0 fd0e f328
000000c0: f77f 2dc3 f0d7 e882 e7d4 f610 759c c8ea
000000d0: 67e9 e53f 43fb c803 bc54 27fb ebbc a517
000000e0: 7f44 7fdd fce6 3d32 e6be 9d59 b643 df25
000000f0: fb1c e37f e2aa ee06 2395 7f31 f4fa 007f

model_1/conv_pw_248/Conv2D i1 [64, 1, 1, 64]
-48 -21 -17 -2 4 27 -71 -12
12 -24 10 2 -18 -43 48 -2
52 -36 -36 23 50 -13 -9 -14
-4 9 -29 25 10 -18 15 -5
-26 -17 1 -19 -27 -13 40 44
26 -15 -3 33 -49 13 12 6
24 17 -53 36 6 29 35 -25
75 -11 -5 25 -91 24 -24 -127
-28 9 -36 -82 -45 -39 -17 21
-8 23 -26 8 -51 -43 2 -15
74 39 5 -70 24 21 -4 -22
-55 -16 62 -2 -18 13 -15 92
-29 127 28 -76 -70 35 4 74
-76 15 19 -21 -8 -4 7 46
54 3 -98 2 71 -2 -6 -85
53 -50 35 19 -8 -57 -15 -17
-119 22 123 -22 -21 -18 -127 28
-27 -36 19 -63 29 -20 -72 12
-11 -121 -22 25 -15 -26 -40 12
73 -37 113 -8 -28 2 -30 34
-40 24 13 2 -71 36 -33 -72
-89 -2 28 -13 -11 14 48 35
36 -21 -66 -33 -117 -7 -29 1
-87 -22 92 7 -3 15 17 12
13 -46 -36 41 118 18 45 -51
-33 54 115 38 -31 -8 -120 -19
-40 -5 -43 -71 22 -31 -3 -25
40 83 -6 -73 -37 -21 -35 -6
-56 98 17 -29 -24 -22 -36 58
24 -69 34 -8 19 -15 -40 7
22 -37 -59 -40 5 3 21 -3
-18 -56 18 -127 43 -7 -31 9
00000000: d0eb effe 041b b9f4 0ce8 0a02 eed5 30fe
00000010: 34dc dc17 32f3 f7f2 fc09 e319 0aee 0ffb
00000020: e6ef 01ed e5f3 282c 1af1 fd21 cf0d 0c06
00000030: 1811 cb24 061d 23e7 4bf5 fb19 a518 e881
00000040: e409 dcae d3d9 ef15 f817 e608 cdd5 02f1
00000050: 4a27 05ba 1815 fcea c9f0 3efe ee0d f15c
00000060: e37f 1cb4 ba23 044a b40f 13eb f8fc 072e
00000070: 3603 9e02 47fe faab 35ce 2313 f8c7 f1ef
00000080: 8916 7bea ebee 811c e5dc 13c1 1dec b80c
00000090: f587 ea19 f1e6 d80c 49db 71f8 e402 e222
000000a0: d818 0d02 b924 dfb8 a7fe 1cf3 f50e 3023
000000b0: 24eb bedf 8bf9 e301 a9ea 5c07 fd0f 110c
000000c0: 0dd2 dc29 7612 2dcd df36 7326 e1f8 88ed
000000d0: d8fb d5b9 16e1 fde7 2853 fab7 dbeb ddfa
000000e0: c862 11e3 e8ea dc3a 18bb 22f8 13f1 d807
000000f0: 16db c5d8 0503 15fd eec8 1281 2bf9 e109

model_1/conv2d_4/Conv2D i1 [192, 1, 1, 64]
11 -84 -89 -21 62 -14 -37 -56
1 -25 13 -26 13 47 59 -23
-1 127 -51 50 -41 45 -38 -18
-5 22 -53 -76 28 -25 1 96
15 8 -24 -40 9 -22 13 -60
3 5 8 21 -25 5 77 20
25 17 -6 22 -54 31 -21 12
1 4 24 12 -109 9 23 51
126 28 24 -10 36 7 73 12
-25 31 10 -1 24 24 50 22
1 59 11 -71 28 44 1 50
27 -18 34 73 36 -21 4 15
-37 38 -32 96 1 39 -26 6
-26 16 -31 19 127 59 -53 69
37 17 -8 17 62 4 -34 106
74 19 8 -60 15 10 4 -4
26 -20 11 67 41 -4 19 4
-63 -84 -21 -32 -71 91 -1 -96
21 97 -2 120 18 58 -15 -43
-4 -48 -32 -127 44 46 33 72
-46 29 -56 -101 35 5 50 54
18 9 -68 111 20 -1 22 35
-32 -81 -115 75 -25 -37 51 46
-70 56 52 76 16 74 43 23
0 1 28 48 74 -16 49 23
-100 17 -8 34 -5 18 8 -80
5 20 115 119 -27 52 11 127
0 -22 36 -74 104 49 9 126
-28 105 50 9 79 52 -61 38
-17 86 21 45 10 8 22 24
44 -19 -82 91 -58 102 -7 52
-25 0 -26 60 81 -42 -21 18
00000000: 0bac a7eb 3ef2 dbc8 01e7 0de6 0d2f 3be9
00000010: ff7f cd32 d72d daee fb16 cbb4 1ce7 0160
00000020: 0f08 e8d8 09ea 0dc4 0305 0815 e705 4d14
00000030: 1911 fa16 ca1f eb0c 0104 180c 9309 1733
00000040: 7e1c 18f6 2407 490c e71f 0aff 1818 3216
00000050: 013b 0bb9 1c2c 0132 1bee 2249 24eb 040f
00000060: db26 e060 0127 e606 e610 e113 7f3b cb45
00000070: 2511 f811 3e04 de6a 4a13 08c4 0f0a 04fc
00000080: 1aec 0b43 29fc 1304 c1ac ebe0 b95b ffa0
00000090: 1561 fe78 123a f1d5 fcd0 e081 2c2e 2148
000000a0: d21d c89b 2305 3236 1209 bc6f 14ff 1623
000000b0: e0af 8d4b e7db 332e ba38 344c 104a 2b17
000000c0: 0001 1c30 4af0 3117 9c11 f822 fb12 08b0
000000d0: 0514 7377 e534 0b7f 00ea 24b6 6831 097e
000000e0: e469 3209 4f34 c326 ef56 152d 0a08 1618
000000f0: 2ced ae5b c666 f934 e700 e63c 51d6 eb12

model_1/conv2d_6/Conv2D i1 [32, 1, 1, 64]
-27 54 -10 0 -2 46 -21 -6
-12 96 -18 -67 4 104 58 -3
14 51 -98 -25 18 -32 37 -3
-18 -4 6 -48 108 -44 -37 31
9 127 -53 86 29 -19 86 -77
11 23 7 -24 55 -42 -13 82
-17 -52 -111 46 24 -42 17 -4
43 37 -59 -36 -41 -35 12 65
40 37 -12 -14 -4 15 -19 10
22 61 -7 -15 35 4 52 2
0 42 -3 0 17 5 -28 13
-14 26 -10 -14 56 -14 53 12
9 127 -12 53 15 15 17 -12
39 71 14 3 44 -21 -23 -18
2 -7 4 21 -26 4 25 1
29 26 -23 1 -20 1 -1 4
-13 -39 -14 -5 63 41 0 25
60 16 -27 55 28 5 -24 -16
45 -12 -28 -12 18 74 -17 -48
20 0 41 41 54 -19 -62 19
-24 35 2 22 -17 -7 32 34
16 -18 -7 3 15 -10 16 7
20 3 -6 72 21 -10 -14 -15
13 1 10 -57 66 -50 -16 127
-29 7 34 -72 20 -33 22 -66
4 12 14 74 -41 42 22 -77
-44 -13 14 -12 -54 32 35 4
-121 -61 28 4 42 25 -53 25
-1 -22 26 27 -55 44 -79 74
-122 45 -74 42 -21 -54 28 3
3 -127 65 17 -93 7 -34 7
19 -11 19 28 2 -102 -99 2
00000000: e536 f600 fe2e ebfa f460 eebd 0468 3afd
00000010: 0e33 9ee7 12e0 25fd eefc 06d0 6cd4 db1f
00000020: 097f cb56 1ded 56b3 0b17 07e8 37d6 f352
00000030: efcc 912e 18d6 11fc 2b25 c5dc d7dd 0c41
00000040: 2825 f4f2 fc0f ed0a 163d f9f1 2304 3402
00000050: 002a fd00 1105 e40d f21a f6f2 38f2 350c
00000060: 097f f435 0f0f 11f4 2747 0e03 2ceb e9ee
00000070: 02f9 0415 e604 1901 1d1a e901 ec01 ff04
00000080: f3d9 f2fb 3f29 0019 3c10 e537 1c05 e8f0
00000090: 2df4 e4f4 124a efd0 1400 2929 36ed c213
000000a0: e823 0216 eff9 2022 10ee f903 0ff6 1007
000000b0: 1403 fa48 15f6 f2f1 0d01 0ac7 42ce f07f
000000c0: e307 22b8 14df 16be 040c 0e4a d72a 16b3
000000d0: d4f3 0ef4 ca20 2304 87c3 1c04 2a19 cb19
000000e0: ffea 1a1b c92c b14a 862d b62a ebca 1c03
000000f0: 0381 4111 a307 de07 13f5 131c 029a 9d02

model_1/conv_dw_247_bn/FusedBatchNormV3;model_1/conv_dw_247/depthwise;model_1/conv_pw_247/Conv2D i1 [1, 3, 3, 32]
19 127 -22 -74 73 9 -60 98
-16 81 81 -96 -11 24 33 -25
-43 -12 15 113 43 11 -127 82
-74 37 -98 -41 2 84 -14 -27
-58 102 -35 -111 127 -8 61 -12
-76 124 -120 -58 15 -8 67 84
-11 -127 43 98 -127 113 126 -78
-19 25 25 -63 -18 -58 -52 -22
-26 25 -34 18 61 3 -38 -22
114 79 90 -127 46 -15 -16 -18
26 -100 98 127 63 51 -119 -29
6 67 -127 17 -80 -15 127 -11
127 113 -113 47 -47 -127 -73 127
-127 -53 114 -32 -39 31 39 -11
-62 87 -72 -7 -115 36 -114 -23
-127 127 -14 75 23 127 -53 10
26 65 48 127 -81 -57 77 -14
1 30 -99 79 -16 9 1 127
10 -60 66 -81 -43 14 26 100
113 127 11 78 17 -35 -56 -24
73 -2 -127 -79 29 -108 -127 -57
114 105 127 5 90 37 47 -64
127 -21 -99 -47 -58 -127 -60 127
3 24 -7 127 -54 -9 112 0
-6 89 -35 -17 -11 -14 -61 61
-51 35 79 -48 25 50 127 45
-12 127 -127 14 24 6 -22 8
-73 -15 -93 26 -56 90 -14 37
36 90 19 -45 -59 -2 -28 -15
-16 35 -32 -74 -6 127 2 28
0 19 62 34 -37 44 19 -80
41 2 -46 4 -66 -18 57 127
00000000: 137f eab6 4909 c462 f051 51a0 f518 21e7
00000010: d5f4 0f71 2b0b 8152 b625 9ed7 0254 f2e5
00000020: c666 dd91 7ff8 3df4 b47c 88c6 0ff8 4354
00000030: f581 2b62 8171 7eb2 ed19 19c1 eec6 ccea
00000040: e619 de12 3d03 daea 724f 5a81 2ef1 f0ee
00000050: 1a9c 627f 3f33 89e3 0643 8111 b0f1 7ff5
00000060: 7f71 8f2f d181 b77f 81cb 72e0 d91f 27f5
00000070: c257 b8f9 8d24 8ee9 817f f24b 177f cb0a
00000080: 1a41 307f afc7 4df2 011e 9d4f f009 017f
00000090: 0ac4 42af d50e 1a64 717f 0b4e 11dd c8e8
000000a0: 49fe 81b1 1d94 81c7 7269 7f05 5a25 2fc0
000000b0: 7feb 9dd1 c681 c47f 0318 f97f caf7 7000
000000c0: fa59 ddef f5f2 c33d cd23 4fd0 1932 7f2d
000000d0: f47f 810e 1806 ea08 b7f1 a31a c85a f225
000000e0: 245a 13d3 c5fe e4f1 f023 e0b6 fa7f 021c
000000f0: 0013 3e22 db2c 13b0 2902 d204 beee 397f

model_1/conv_pw_247/Conv2D i1 [32, 1, 1, 32]
-44 51 -4 -5 48 127 -52 -7
-84 -44 92 -19 -57 1 -14 -20
-95 -28 -11 61 50 -104 26 32
-107 11 24 60 -67 -66 -24 -1
127 120 44 -76 -29 -51 24 -22
3 5 44 23 -10 -33 -56 90
27 5 61 16 -42 -28 39 -50
17 -11 69 46 -37 -10 -19 -48
-8 -49 36 49 -127 -8 -18 -38
-21 7 63 -21 -78 9 52 3
26 13 27 -19 -18 -4 -24 15
-29 -18 8 -45 -2 -47 -67 -103
23 18 -3 19 -127 18 -3 -51
-8 3 27 -27 66 7 -30 7
-2 -5 26 32 10 20 -23 -11
1 -8 14 6 9 -33 -22 -53
63 115 127 -6 97 -20 6 -74
-15 -26 97 -1 -93 48 54 73
33 -74 28 -89 -53 21 -86 37
75 -26 -78 -16 33 -26 -42 -97
-6 -35 -16 -52 72 42 -52 67
-36 6 18 19 -1 -23 -3 -39
0 -43 24 -42 42 -10 25 5
-41 15 -29 3 -8 3 -18 127
92 116 -110 -19 -59 -49 -10 79
-115 127 -123 -40 -121 36 -29 79
52 -14 -72 -126 16 40 -72 -115
46 18 114 32 13 78 -108 -43
-8 15 15 127 -49 64 26 27
33 5 26 9 -16 44 34 22
26 -14 20 -16 -11 33 3 18
-18 19 18 36 4 -10 -26 -57
00000000: d433 fcfb 307f ccf9 acd4 5ced c701 f2ec
00000010: a1e4 f53d 3298 1a20 950b 183c bdbe e8ff
00000020: 7f78 2cb4 e3cd 18ea 0305 2c17 f6df c85a
00000030: 1b05 3d10 d6e4 27ce 11f5 452e dbf6 edd0
00000040: f8cf 2431 81f8 eeda eb07 3feb b209 3403
00000050: 1a0d 1bed eefc e80f e3ee 08d3 fed1 bd99
00000060: 1712 fd13 8112 fdcd f803 1be5 4207 e207
00000070: fefb 1a20 0a14 e9f5 01f8 0e06 09df eacb
00000080: 3f73 7ffa 61ec 06b6 f1e6 61ff a330 3649
00000090: 21b6 1ca7 cb15 aa25 4be6 b2f0 21e6 d69f
000000a0: fadd f0cc 482a cc43 dc06 1213 ffe9 fdd9
000000b0: 00d5 18d6 2af6 1905 d70f e303 f803 ee7f
000000c0: 5c74 92ed c5cf f64f 8d7f 85d8 8724 e34f
000000d0: 34f2 b882 1028 b88d 2e12 7220 0d4e 94d5
000000e0: f80f 0f7f cf40 1a1b 2105 1a09 f02c 2216
000000f0: 1af2 14f0 f521 0312 ee13 1224 04f6 e6c7

model_1/conv2d_8/Conv2D i1 [192, 1, 1, 32]
-13 -7 -21 -24 14 41 -17 -25
26 -20 3 -47 15 -22 -56 17
11 8 21 19 23 37 -50 -127
-60 -11 -11 5 23 -58 -28 0
34 6 18 -23 52 -52 -59 -10
47 37 -21 32 -32 -127 -13 36
-8 -35 22 -24 21 -46 -32 -94
-68 35 46 17 35 104 100 24
27 29 13 82 49 -47 19 15
74 -21 -13 2 11 -5 127 8
-31 12 10 -14 -89 -11 -26 17
45 -32 9 0 -6 -4 -1 -32
43 10 -9 16 -9 -9 16 3
-22 -33 19 -7 -18 11 14 35
-1 42 2 -12 -4 -18 -7 15
-17 -23 127 26 9 -37 -7 17
20 56 20 4 0 -108 -30 -28
21 127 17 -20 2 -52 2 17
-25 -13 -16 -39 14 -12 -7 39
92 -25 20 3 -20 -78 49 5
6 69 68 32 6 10 63 88
127 94 -68 -2 45 67 115 -46
16 78 3 -55 -61 -2 -10 5
56 -22 18 -66 31 31 -13 -6
80 127 33 64 38 -46 75 116
25 -29 28 29 17 35 63 81
-12 -79 -20 58 -29 56 34 23
41 -62 35 118 -37 75 -32 4
-69 4 -11 18 -37 -9 24 17
-25 -7 0 -10 35 127 -35 31
42 89 94 62 -53 55 65 16
5 -23 6 16 -63 -53 -113 -111
00000000: f3f9 ebe8 0e29 efe7 1aec 03d1 0fea c811
00000010: 0b08 1513 1725 ce81 c4f5 f505 17c6 e400
00000020: 2206 12e9 34cc c5f6 2f25 eb20 e081 f324
00000030: f8dd 16e8 15d2 e0a2 bc23 2e11 2368 6418
00000040: 1b1d 0d52 31d1 130f 4aeb f302 0bfb 7f08
00000050: e10c 0af2 a7f5 e611 2de0 0900 fafc ffe0
00000060: 2b0a f710 f7f7 1003 eadf 13f9 ee0b 0e23
00000070: ff2a 02f4 fcee f90f efe9 7f1a 09db f911
00000080: 1438 1404 0094 e2e4 157f 11ec 02cc 0211
00000090: e7f3 f0d9 0ef4 f927 5ce7 1403 ecb2 3105
000000a0: 0645 4420 060a 3f58 7f5e bcfe 2d43 73d2
000000b0: 104e 03c9 c3fe f605 38ea 12be 1f1f f3fa
000000c0: 507f 2140 26d2 4b74 19e3 1c1d 1123 3f51
000000d0: f4b1 ec3a e338 2217 29c2 2376 db4b e004
000000e0: bb04 f512 dbf7 1811 e7f9 00f6 237f dd1f
000000f0: 2a59 5e3e cb37 4110 05e9 0610 c1cb 8f91
